checkpoints_attnet_att_consist.pth (torch_old, 38706 bytes, 14 tensors)

conv1.weight f4 [8, 3, 3, 3]
00000000: 33f9 1ebc b8ba 123e 586e 203e 8a81 d5bc
00000010: 7950 dcbc d99a 0b3e 8287 9ebd 4ccb 0c3d
00000020: d52a e8bb 7896 163e ccda 8a3d 2ee5 03be
00000030: 3ba9 843c f6e1 3dbe 3dd8 253e 6eeb 50bd
00000040: cb6a 40bd bd81 343e f869 7f3e 13c0 603e
00000050: 992c 49bd c8ae 3e3e 570c 2e3e dbbf 473e
00000060: 3f90 283e 9417 403e cb97 2f3e efb7 323e
00000070: 65cf acbc 5783 563e 3169 2b3e 3024 d73d
00000080: 8920 fc3d ba44 4d3e 38f9 eb3c ca72 3e3e
00000090: 2abf 113e e9ab 773d 252e 41be eb68 d13d
000000a0: 2554 30bd 9c78 2b3e d95d 32be 4882 34be
000000b0: 7c27 b33d 98f8 da3c 3e9d 413d a319 79bc
000000c0: 3513 1a3e cd7b 0fbb 58e8 15bd d436 2b3d
000000d0: e16f 45be 9d3b 4bbe 67dc 47be 0566 52be
000000e0: 0527 87be 4140 72be 4f3f 6ebd ac11 75be
000000f0: cc9b ec3d 6218 153e 77e0 59be c859 08be
00000100: dd7c cc3d 6a8e 42be 7a98 3dbe 2dfc ae3d
00000110: c6af 0b3d fb6e fb3c 3f95 f9bd 7b21 193e
00000120: fa4d 653e f91e 923b da23 39bc e7fe 873e
00000130: 2bac 9a3d df11 193e f1e0 78bd 65f7 803e
00000140: b159 893e 5f4e 963e cd2d 903d 1bbb 823e
00000150: a85b f43c 9a47 023e 8729 3c3d ac68 4ebd
00000160: 882a 1cbe 6135 ebbd d93f 4bbd f755 d93d
00000170: ac5c 78bd eb2c c2bd 1b37 63bd 2786 a2bd
00000180: cf7d 923d d682 10be 8f0c 6bbe 0b33 0fbe
00000190: 9212 3abe 6975 17be 7c2a 4dbe b89c 44be
000001a0: 16b9 f6bc af23 453d 14b8 74be f14a 68be
000001b0: 4faf 4f3d d754 533e be2c 3a3e f2e6 413e
000001c0: 1444 06be 3cd1 723d 791f 233e 040d ab3d
000001d0: d861 8a3d f7cf 87bd 39d0 353e c4b9 2ebe
000001e0: 1424 0dbe 2f63 183e faef 223e 31f9 f5bc
000001f0: 77f6 f1bd 72b5 3d3e 208a 693c b54a aabd
00000200: efcf 9e3d a1e8 b1bd a32b 79bc 6ed3 11be
00000210: 5f0b 27be 92f6 32be 79fd 34be 8d2f 65bd
00000220: 0bae 0b3e 46dc e13d d989 02bd a8eb 033e
00000230: edc7 163d 8f45 b63d b91b 88bd caf2 b93c
00000240: ce64 f33b b3e7 543d 42c4 313e 1d74 aa3d
00000250: 13f4 b0bd 3a07 153e 95fc 3fbc 25bf 263e
00000260: 4a1f 9d3d 23c0 3fbc f2a8 013e 1315 6b3e
00000270: 506e 66bd ff77 0d3e 6dc8 aa3d 96b8 b03d
00000280: 3fff 543a 23eb 8a3e 4d30 26be 80a7 1f3e
00000290: 56ae 2bbe 28d3 35be 4c4f 5d3d f877 97bc
000002a0: 7abe eabc 9313 c23d 9491 b03d 4276 b8bd
000002b0: ac6b 933c 0c87 773d bf71 b8bd 1db1 dd3d
000002c0: 828d 453d b88d 303e 92de 803d d5f6 793d
000002d0: 4074 fd3d 83f0 51be cb03 2bbd a87d 1fbe
000002e0: a892 233e 473f 4ebe b691 1dbd b3dd 5bbe
000002f0: f822 ccbd cd01 f23d 0559 343d 7793 e43b
00000300: 6113 d1bc fd08 a73d 0331 aabd 7169 18be
00000310: caab f73b 3681 2a3e f946 a33d c84b c53d
00000320: 0528 96bd 5356 553c e055 55be b98e 4dbe
00000330: f3d4 41be ce6d 563c 3376 c6bc 635c 2cbe
00000340: 2ba1 1ebe 4e82 093e 0749 b43d c3a6 913d
00000350: 6009 3cbe 4a58 b8bc b09b 29bd 099d e6bd
-0.009702968 0.1432904 0.15667093 -0.026062746 -0.026893841 0.13633288 -0.0774069 0.034373567
-0.007085184 0.14705837 0.067800134 -0.12880394 0.016193977 -0.18543229 0.1619577 -0.051005773
-0.046976846 0.17627616 0.24942768 0.2194827 -0.049114797 0.18621361 0.16996895 0.19506781
0.16461276 0.18758994 0.17147748 0.17452978 -0.021094987 0.2094854 0.16739346 0.10504949
0.12310893 0.20045748 0.02880536 0.18598476 0.1423308 0.06046668 -0.18865259 0.1022509
-0.043048996 0.16745228 -0.17418613 -0.17627823 0.087477654 0.026729867 0.0472691 -0.015203866
0.1504639 -0.002189386 -0.036598533 0.041800335 -0.1928096 -0.1984696 -0.1951767 -0.2054673
-0.26396957 -0.23657323 -0.058165845 -0.23932523 0.115531534 0.14560083 -0.21277033 -0.13315499
0.09984753 -0.18999639 -0.18515196 0.085441925 0.034103177 0.030692568 -0.121866696 0.14954178
0.22393027 0.0044592586 -0.011300052 0.26561663 0.0755237 0.14948224 -0.060761396 0.25188747
0.26826242 0.29356667 0.07039986 0.25533375 0.029828861 0.12722626 0.04593804 -0.05039279
-0.152506 -0.114847906 -0.049621437 0.106120996 -0.060635254 -0.09481224 -0.055472475 -0.07935744
0.07152902 -0.1411241 -0.2295401 -0.13984315 -0.18171147 -0.14790882 -0.20035738 -0.19200408
-0.030117553 0.048129734 -0.23898345 -0.22684838 0.050704297 0.20637833 0.1818113 0.18935755
-0.13111907 0.059281573 0.15929975 0.08352092 0.067569435 -0.06631463 0.17755212 -0.17063051
-0.13783294 0.14881586 0.15911856 -0.03002605 -0.118145876 0.18526247 0.014254123 -0.083150305
0.07754504 -0.086869486 -0.015208158 -0.1424081 -0.16312931 -0.17476872 -0.17674817 -0.05595355
0.13640611 0.11028342 -0.031869743 0.12882864 0.036811758 0.08899986 -0.06645913 0.022698779
0.0074277883 0.051978778 0.17360023 0.08322928 -0.086403035 0.14553538 -0.011717935 0.16283853
0.076719835 -0.011703524 0.12662104 0.22957258 -0.056257546 0.13815306 0.083390094 0.08628957
0.0008125193 0.2713252 -0.16229363 0.1559124 -0.16765723 -0.17756331 0.0540307 -0.018489823
-0.02865528 0.0947639 0.08621517 -0.09006931 0.017995678 0.060431525 -0.0900607 0.10824797
0.048230655 0.17241561 0.06292452 0.061026413 0.123756886 -0.20501904 -0.041751664 -0.15575278
0.15973914 -0.20141326 -0.03846904 -0.2147129 -0.09967607 0.1181675 0.04403021 0.006975587
-0.025521936 0.08156011 -0.083101295 -0.14883973 0.0075583206 0.16650853 0.07972521 0.09633595
-0.07331852 0.01302107 -0.2083354 -0.20073976 -0.1892889 0.013087703 -0.024226284 -0.16832118
-0.15491168 0.13428614 0.08802991 0.071118854 -0.18362951 -0.022503037 -0.04140824 -0.11260421

conv1.bias f4 [8]
00000000: 8735 053d 816b 943e 8d02 6d3e 47ce 903e
00000010: 5539 b33d b8c0 5d3d 700c a5bd 16be 4dbe
0.03252175 0.2898827 0.23145504 0.28282377 0.087511696 0.05413887 -0.08059013 -0.20092043

conv2.weight f4 [8, 8, 3, 3]
00000000: 9d00 3d3d dc1d 6ebd 9ecd d1bc cbfc c33c
00000010: 9d28 713d 230b 97ba 110a 0ebb e743 9ebd
00000020: 0579 03be ac8f 413e 81b3 36bd 4980 3bbc
00000030: fed0 623d 2a8a 893d b258 ca3d c49f 3dbd
00000040: 2851 993d 24b3 9d3d 5ee0 6c3d 283b 1fbe
00000050: 1452 e43c e222 9e3d 0bde d6bd 523e 0cbd
00000060: 61f7 a2bd 1b5a d1bd 8ddd 203d 08d8 f03d
00000070: 52a6 483e 591e 2e3e caf7 cf3d 979f 493e
00000080: e822 193e 84b4 973d fe83 7e3e bf82 e53d
00000090: 6de9 103e f224 c0bb c1fc d23d 1d51 b63d
000000a0: 175b 9d3d 3d25 d2bc 94c6 83bd 6f64 c1bc
000000b0: 4860 053d 3888 993d db3c 06bc 327e 393d
000000c0: 8f46 56bd b94f debb 9d3b bfbd 8915 abbd
000000d0: 8657 b5bd 2d78 bebd 7d28 77bc 8011 03be
000000e0: f9dd babc bb99 603c e5fe fdbd 08d3 843c
000000f0: 1424 0dbe c992 98bd f6d2 ab3d 8f9a f03d
00000100: bdab a73d 7534 713c efa4 213e 2b97 5b3c
00000110: a11f a03c dc13 a63d f462 2ebd 97dc 48bb
00000120: e606 9c3d 84e4 a13d 30df 883d f684 0e3d
00000130: fa58 2abd 5dce bcbd 3a42 d33d 3931 a53d
00000140: 9be9 9abd bc3c 193e 7554 133e 182a 133e
00000150: 5357 ef3d f46a d53d 04fc 2c3d adc6 ecbc
00000160: 1cf5 71bd a22b 1c3d 8ff7 6c3c 4f0c 673d
00000170: adf2 ba3c aab2 ef3c 3f1f d4bd 6fdf fabd
00000180: 3e3d 9cbb c712 1cbe 8a43 e5bd d275 e73d
00000190: 4b1a e03d f12f 23bd c410 ae3d 737d c53d
000001a0: d591 003e 889a 7c3d f955 4cbc cb00 193e
000001b0: d3c9 8abd 1cd2 c9bc 5724 763d 2faa 253d
000001c0: e47b 993d 3d76 9b3d 6c21 bf3d 0b39 88bd
000001d0: f8cf 97bd 800c 193e 16cc 49bd 6d09 6ebc
000001e0: 0fb3 063c 5543 69bd 8cdd 04bd 934a 903d
000001f0: fe89 d9bc 1588 043e 4755 51bd 11b1 80bd
00000200: 3d69 903a be2c 01be aa85 d3bd 28d9 48bb
00000210: 46ad 4cbd 262b 4f3d 3415 273d 348f 873d
00000220: 7fa4 fd3d f1c9 bfbd c398 cfbc ff2f 0e3d
00000230: 6049 aebd b950 b53d 0ab4 bb3d 3b5f b7bc
00000240: be11 243d f0e4 a7bc 035b 733d bd83 073e
00000250: c900 8b3d 0bbc 883b a63d 093e d66f 0c3e
00000260: 9f6e 233b d0d5 18ba b7ec 2fbe f34b eabd
00000270: 5235 b6bd fa69 7dbd d90e fe3c 4259 40bd
00000280: 60ae cebd fc36 453d ef53 383e ebbc 823e
00000290: 48bd 423e 7bd2 bc3d 564e 1b3e 5921 133e
000002a0: 7b79 0c3e a153 d63d 31c2 ee3d f796 7dba
000002b0: 3e4f e73c ff45 99bd bd5f 863d 9c44 14be
000002c0: 69c9 e8bd 835d 3e3d 00ee e3bd 6f44 a03b
000002d0: 7cdf 35be 6853 0ebd 2177 3fbd 41c8 db3c
000002e0: 0970 e6ba ac4a babd 0ad7 dcbb ee16 17be
000002f0: 2e0c d6bd a042 fcbd 5dbd 853d cde8 ca3c
00000300: 855c 8d3d 1301 f7bd 98c5 27bc 1dd2 993d
00000310: 6604 5c3b c6af f93d 39ac e0bd 8094 cb3c
00000320: 4e7c b63d 8bf1 09bd 8d0e c93c bf11 733c
00000330: 42d0 8ebd 0822 bf3c 4a36 8cbc db82 27bd
00000340: 2634 ac3d 9b6e eb3d e471 51bd 291f 8f3d
00000350: d05e f13d bc13 bf3d 2260 55bd 7158 90bc
00000360: 1a3e a33d 21a2 98bd e7e3 c1bd bf49 a63d
00000370: 4077 063d fea6 6cbd eb98 14bd 7e3a a13d
00000380: b36f 943d 9279 353c d8fd 493d e089 973c
00000390: 32b2 09bd 9c5f 863d 3643 b83d 9699 bf3d
000003a0: 9aa4 123c 4fd1 5a3d c73c 543d 733c f53d
000003b0: 9ed3 ba3d db64 cebb f7a5 003e f2bf 093e
000003c0: 7958 c8bd f68e adbd c240 ed3b 828a c8bc
000003d0: 9a01 65bd e893 afbd 1da2 053d e529 a6bd
000003e0: 0e89 90bc ac85 89bd ca86 e6bd 5bf5 e5bc
000003f0: 9ead f9bd 86dc 733c 5220 8e3d f6e2 1e3b
0.046143163 -0.058133945 -0.025610741 0.023924252 0.058876622 -0.0011523705 -0.002167348 -0.07727795
-0.12839134 0.18902463 -0.044604782 -0.01144416 0.05537509 0.06715806 0.098801985 -0.046294942
0.074861825 0.07700184 0.05783116 -0.1554991 0.02787117 0.07721497 -0.1049157 -0.03423912
-0.0795734 -0.102222644 0.039273787 0.11759955 0.19594696 0.17003764 0.10154684 0.19689785
0.14954722 0.074074775 0.24855039 0.112065785 0.14151545 -0.005863779 0.10302115 0.0890219
0.0768339 -0.025652522 -0.0643436 -0.02360746 0.032562524 0.07496685 -0.00819322 0.045286365
-0.052313384 -0.006784406 -0.09337542 -0.08353717 -0.088545844 -0.093002655 -0.015085337 -0.12799644
-0.022810923 0.013708527 -0.12402133 0.016213909 -0.13783294 -0.07449872 0.08389847 0.1174823
0.08187053 0.014721979 0.15785573 0.0134027405 0.019546332 0.081092566 -0.042574838 -0.003064906
0.07618503 0.07904914 0.06683195 0.03479477 -0.04158876 -0.09219048 0.10315366 0.08066029
-0.07564088 0.14964575 0.14387687 0.14371526 0.11686578 0.1042079 0.04223253 -0.02890333
-0.059071645 0.03812755 0.014463319 0.056408223 0.022820795 0.029259998 -0.10357522 -0.12249648
-0.004768043 -0.15241538 -0.11194523 0.11301769 0.10942515 -0.039840642 0.084992915 0.09643068
0.1255563 0.06167081 -0.012471669 0.14941709 -0.06776776 -0.02463632 0.06009325 0.040445503
0.074943334 0.075909115 0.093325466 -0.06651505 -0.07412714 0.14946175 -0.049266897 -0.0145286145
0.008221402 -0.05694898 -0.032437846 0.07045474 -0.026555058 0.12942536 -0.051106717 -0.06283773
0.0011017692 -0.12614724 -0.10328229 -0.0030647013 -0.049969934 0.05057826 0.040791705 0.06619111
0.12384891 -0.09364689 -0.025341397 0.03471374 -0.08510089 0.08853287 0.09165199 -0.022384277
0.040055983 -0.020494908 0.059412967 0.13233848 0.06787259 0.004172807 0.13402423 0.13714537
0.0024937761 -0.00058302004 -0.17180143 -0.114402674 -0.08896889 -0.061868645 0.03101294 -0.046960123
-0.10091853 0.04814814 0.18000768 0.25534758 0.19017518 0.092198335 0.15166602 0.1436819
0.13718216 0.1046517 0.11658133 -0.00096736796 0.028236028 -0.07484054 0.065612294 -0.14479297
-0.11366541 0.0464759 -0.11129379 0.0048909704 -0.17761034 -0.03474751 -0.04674447 0.026828887
-0.0017580997 -0.09096274 -0.006739502 -0.1475484 -0.10451542 -0.12317395 0.06530259 0.024769211
0.06902412 -0.12060752 -0.010239981 0.07510779 0.0033571958 0.12191729 -0.10970349 0.024851084
0.08910428 -0.03367762 0.024543071 0.014835774 -0.06973316 0.023331657 -0.01711573 -0.040896278
0.08408384 0.11495706 -0.051134005 0.06988365 0.11785662 0.09329936 -0.052093633 -0.017620297
0.07970829 -0.07452799 -0.09467297 0.08119535 0.03282857 -0.057776444 -0.036278646 0.078724846
0.072478674 0.011076348 0.04931435 0.018498361 -0.033617206 0.06561205 0.089971945 0.09355466
0.008950377 0.05342227 0.051815774 0.119744204 0.09122394 -0.006298644 0.1256331 0.13452128
-0.097825 -0.08474533 0.0072403857 -0.024480108 -0.05590973 -0.08573133 0.032625306 -0.081134595
-0.017643478 -0.06714949 -0.11256178 -0.028071096 -0.12191318 0.01488412 0.06939758 0.0024244166

conv2.bias f4 [8]
00000000: 924c 2d3e bd2b fcbb 8ce8 ee3d e0b3 523e
00000010: 33bc a13d 188e 9cbd 10e6 bb3d bd65 cd3d
0.1692374 -0.0076956437 0.116654485 0.2057643 0.07897224 -0.0764429 0.0917474 0.10029171

conv3.weight f4 [16, 8, 3, 3]
00000000: 927f a6bd ecdd f03d 81eb 47bd a1b2 b83d
00000010: 67d3 e8bd c74a 03bd 1d0d a8bd 7d58 303d
00000020: de07 06bb 78e9 593c e78e 923d b682 e43d
00000030: 8ee5 d7bd 8426 acbd 98ea 923d ccd0 9ebd
00000040: 548b 0c3d 66dd 23bc 0d9d b3bb 875f b13d
00000050: 32f6 a2bc 92f2 4e3d acfd 803d a137 81bb
00000060: 890d 953b a257 9ebd 4ed1 7a3d bd67 37bc
00000070: 473e f0bd 3980 123d f13a 9a3d df65 34bd
00000080: 06c4 e5bd 1084 7a3d baeb a3bd b835 84bc
00000090: 8c69 bdbd b25d 68bd 8a89 8dbc 50ee 2d3d
000000a0: bbe6 95bd 894a f43b 8dc2 b03d aaeb cdbd
000000b0: a7de c8bd 1fb4 b43b af67 7fbc 902b 7bbd
000000c0: dc9f 9dbd 1648 e0bd 96f9 8d3d f1f3 a13d
000000d0: 8a42 9e3d c323 bb3d e3b3 d73d 9c20 28bd
000000e0: 0f1a 48bd 3128 0fbd 6f1c a5bd 6b8e 9cbc
000000f0: de3c ee3d 8f6f 06bc e57e c83d 12c9 9abd
00000100: d0c9 063d 2fd8 833c ae90 383d 8b47 cabd
00000110: 3850 f9bc a3d2 d03d e829 66bd 5c8a 7ebc
00000120: 5d8c 27bd 6725 98bd 4b2b 11be 2292 0abe
00000130: b44e a93d 68d6 57bd 9d16 913c 58a0 48bc
00000140: f657 a3bb c7ad b33d 8705 cbbc 57cc 80bd
00000150: 8691 14bd d392 093e 970c 1f3d a0f3 e3bc
00000160: a488 243d 5293 cfbb 78c5 a93c b859 aa3c
00000170: 08df 013e 2c95 a9bd 9e2a babc 1284 bd3b
00000180: 92e2 89bc d341 903d b2a1 a03d 6127 73bc
00000190: 7bbc be3d d22c 083e b6b9 3e3c 0214 003e
000001a0: 7652 ed3d 0389 0cbd 039c 67bb c15f d2bc
000001b0: bc4a 023e de8f 293e fa3e 443e 89df 673d
000001c0: d6ed 843d a909 4e3d ae71 08bd d7d5 0e3e
000001d0: c2ea 303d 4806 b3bc 0812 2d3d 45c2 893b
000001e0: 390c 9f3c bff1 8dbc 2d26 383b b767 dabc
000001f0: 8cb5 d73d 10a3 a53d 2e1a cebd cdb6 3e3c
00000200: 2d07 edbd ca45 8cbd 62d1 5d3d a906 fcbc
00000210: 0b3e d4bd 6f71 8ebd a7e6 753c 23b6 6b3c
00000220: afa8 7f3d 8448 a63d 897b 13bd 5f92 10bc
00000230: b0ef 1f3e e17e f1bc c6ae 3bbd 1f2e ef3d
00000240: 9245 76bd ba04 fb3b 1795 e5bd 68c2 80bd
00000250: 7d4c d93d 591a 97ba f56e 4f3d 850f e0bd
00000260: 5c82 433d 183d 803d f5b3 be3d db0f 9ebd
00000270: 6595 7b3d 031a 183d c77b 31bd 37a2 74ba
00000280: cfca 76bd b92c fe3c 5946 1c3d 87e0 643d
00000290: cce2 3bbd b041 90bd 75a7 483d 1963 1f3c
000002a0: 06d5 9dbd 259c 9cbc 0e10 1bbd 76ba c7bb
000002b0: b877 75bd 3628 bd3a 8cd6 44bd a207 c3bc
000002c0: 8610 d93d 4a6c ccbc 17f4 5a3d 03ea 863d
000002d0: 8ce5 d23d 477f d83c 2b36 c3bd 1334 dcbc
000002e0: 2a81 d0bd 6f79 d0bd e1fa 9b3c 0c72 bc3b
000002f0: c835 d13c 42c6 a2bd eca2 c3bd ff55 f6bc
00000300: 9b2f 3cbd 1852 733c 8fe5 d73c 7735 3d3d
00000310: dfed e6bd e659 443d e98b e23d 1204 223c
00000320: da4a d5bd 3386 283c fe04 323d 8342 c93d
00000330: 8517 ab3d 6adf 783d 6446 91bd 5757 ac3d
00000340: ec94 c73d 540c 89bc fe41 eebd a285 2d3d
00000350: 83c4 253d a4be 133d ccde 2c3c a1b1 5bbd
00000360: af6a 083e 51a9 4a3e b27e 853d cb7c 243e
00000370: c64b 103e 6e8b 633e 380e d53c 7ab8 3b3e
00000380: ba84 cc3d 587d 003e e20f 963d 6fa6 e13d
00000390: 1d0d 403d b440 3ebd c457 7e3d 1f16 803d
000003a0: c6d7 143d 1777 433d 7ae0 82bd 3a70 16be
000003b0: e0f1 a3bd c3aa 84bd 930d 06be 1959 24bd
000003c0: 53a0 d6bc b44a 783d cbbf b73c 6da7 ab3c
000003d0: b0eb 36bd c47b d3bd f67e aa3d 5539 a13d
000003e0: 9685 493d 4d8c 2a3d 979d b23d 66f3 08be
000003f0: f97b acbd a67b 063d 8389 3b3d be9a d7bd
-0.08129801 0.11761078 -0.04880858 0.09018446 -0.11368447 -0.032053735 -0.08205626 0.04305314
-0.0020451467 0.013300292 0.07156163 0.11157744 -0.10541831 -0.08405784 0.071736515 -0.077546686
0.03431256 -0.010001516 -0.0054813684 0.086607985 -0.019892786 0.0505243 0.06298384 -0.003943399
0.0045487327 -0.077315584 0.061234765 -0.011194167 -0.117306285 0.035766814 0.075307734 -0.044042464
-0.11219029 0.0611611 -0.08003946 -0.016138896 -0.09248647 -0.05672998 -0.017277498 0.0424636
-0.07319399 0.0074551743 0.086308576 -0.10054715 -0.098080926 0.005514636 -0.015588685 -0.06132084
-0.076965064 -0.10951249 0.0693237 0.07907856 0.07727535 0.091376804 0.105323575 -0.041046724
-0.048852976 -0.03495044 -0.08062064 -0.019110879 0.11632703 -0.008205309 0.09789828 -0.07557882
0.032907307 0.016094295 0.045059852 -0.09876927 -0.03043376 0.10196426 -0.05619231 -0.015535917
-0.040905345 -0.07429009 -0.14176671 -0.13532308 0.082669646 -0.052694708 0.017710978 -0.01224526
-0.004984851 0.0877338 -0.02478291 -0.06288975 -0.036271594 0.13434915 0.038830366 -0.02782613
0.040169373 -0.0063347006 0.020724043 0.020794734 0.12682736 -0.082804054 -0.0227254 0.0057835663
-0.01683167 0.07043805 0.07843341 -0.014840932 0.093132935 0.13298348 0.011640957 0.12507632
0.11587994 -0.034310352 -0.0035340793 -0.025680425 0.12723821 0.16558787 0.19164649 0.056609664
0.06490676 0.05030218 -0.03331154 0.13948761 0.043192632 -0.021853581 0.042253524 0.004204067
0.019415008 -0.017327188 0.0028098926 -0.026660783 0.10532674 0.08087742 -0.10063587 0.011640263
-0.11573634 -0.06849249 0.05415476 -0.030764895 -0.10363396 -0.069552295 0.015008605 0.0143866865
0.06241673 0.081193 -0.036006484 -0.00882396 0.15618777 -0.029479446 -0.045820974 0.11678719
-0.06012494 0.0076604756 -0.11210077 -0.0628708 0.10610292 -0.0011528238 0.050642926 -0.1094046
0.047731742 0.06261653 0.09311668 -0.07717868 0.06142177 0.03713418 -0.043330934 -0.0009332033
-0.060252007 0.031027185 0.038153026 0.05587819 -0.045870587 -0.07043779 0.048987824 0.009728217
-0.077066466 -0.019117424 -0.037857108 -0.006095226 -0.059928626 0.001443154 -0.04805617 -0.02380735
0.10598855 -0.02495398 0.05345544 0.06587603 0.10297689 0.026427878 -0.09531816 -0.0268803
-0.10180886 -0.101794116 0.019040527 0.0057509 0.02553834 -0.07947971 -0.09552559 -0.030070303
-0.045943838 0.014851116 0.02635458 0.046193566 -0.11275839 0.047937296 0.11061842 0.009888666
-0.104146674 0.010285902 0.043461792 0.09827139 0.08354095 0.06075994 -0.07093504 0.08415096
0.097452015 -0.016729511 -0.11633681 0.04236377 0.04047061 0.03607048 0.010551166 -0.053636197
0.13321947 0.19791152 0.06518306 0.1606323 0.14091405 0.22221157 0.026007757 0.18332091
0.09986253 0.12547815 0.07327248 0.11018073 0.046887506 -0.046448424 0.06209542 0.06254219
0.03633859 0.047720995 -0.06390472 -0.14691249 -0.08005118 -0.06477883 -0.13091116 -0.040124033
-0.026199495 0.060618117 0.022430321 0.020953858 -0.044658363 -0.10326341 0.08324997 0.07872263
0.049199663 0.041637708 0.08721464 -0.13374099 -0.084220834 0.032832764 0.04578544 -0.105275616

conv3.bias f4 [16]
00000000: 5149 c7bd 7251 e63d 5404 a7bd ab9f 113e
00000010: a34d 053e c079 943d 34b6 08bd c6e6 8bbd
00000020: 1d5a 473c 94f6 903d 460b e3bd 3ae2 c7bb
00000030: 8c9e dd3d d463 93bd 0525 373e 785a 99bd
-0.09730781 0.11246003 -0.081551224 0.14221065 0.13017897 0.072497845 -0.033376887 -0.06831126
0.012167481 0.07078281 -0.110861346 -0.0060999664 0.10821256 -0.07196775 0.17885216 -0.07487959

conv4.weight f4 [16, 16, 3, 3]
00000000: 80a1 2a3d 2ede 06bc 9dd1 8a3c f361 34bc
00000010: 41ac fb3c ecdf 18bd 7a1e 4fbd fd66 04bd
00000020: 262a 9abb d499 c93c 504f 123e ebb3 0b3e
00000030: a8b7 e43d 157f cf3d c8dc d63d 0351 643d
00000040: b919 ae3c c02b 8cbc 6859 93bd 1b42 9b3c
00000050: fe2f 85bc 96b9 1abd c8ff 553d 1cad 673d
00000060: dfd4 8ebc 5eac 95bd 6161 9e3d 3ef7 9abb
00000070: 50de b9bd bcfe 1fbd 17c3 d9bd 5bff 87bd
00000080: 4ac9 a7bd e377 02bd 2396 b7bb 5fae 16bd
00000090: 6ade 2b3c 94b6 5ebd e550 a63d 717c 5dbd
000000a0: fb99 4f3c a016 b93d 1d4e 1abd 1530 373d
000000b0: 1bc6 5cbd fa90 603d eed5 9d3d 4ba1 173a
000000c0: 2a62 933d 0f61 a83d e67f 6a3d 5507 683d
000000d0: b821 a7bc 3ec3 993d 0223 0e3d a85e a5bc
000000e0: ff88 a3bc 4ca3 443d b036 063d 7b4c f33c
000000f0: d9bd 24bd f7c9 eb3b a9ef 9b3d d6fc c43c
00000100: 0478 073b c0d9 8b3d 9684 833c bb88 1c3d
00000110: 72e7 7e3d f16d 0cbc c397 663c ca15 9ebb
00000120: 597f 81bc dc0e 1bbb 0095 733c 4625 9b3d
00000130: a9ae 803d 2ec1 c23d 3c93 fb3c 7649 9d3d
00000140: ba3d e13d cb1a bf3d df24 193e b0bc 843d
00000150: 9328 a93c 6192 f73d d52a 003e 17ec f2bc
00000160: bdcc 1e3d 9a92 eb3d 35c4 d93b 167b 99bd
00000170: 8137 8f3d 7ce9 15bb d018 1939 d46e ec3c
00000180: c9b2 82bd 5f0e 94bd 4cb5 00bd a5d7 88bd
00000190: 038f 0f3d 3a34 933d b3e9 053c cddc cabb
000001a0: 3ab4 a9bd 9605 583d 5d74 ea3c f590 34bd
000001b0: e971 1d3d 5bc7 383d 074b 93bd 66a6 82bd
000001c0: db4d 9fbc 948c b33d 0792 81bd 59a3 43bd
000001d0: 5af4 ba3d a009 553c 1a23 663d 3201 2d3d
000001e0: d3f4 6ebd 08b0 36bc 13c1 a3bd b804 783c
000001f0: e096 b53c 12e6 3a3d b36e 213d b0a6 943d
00000200: 9ecc a33d a2bf 89bd 38ac cf3c 1bef da3a
00000210: 4d8b 7abd 0959 3abc fdf8 a43b a33f 113d
00000220: 8318 a1bd 6792 acbd 37ea 1b3d f9c4 e73c
00000230: 41ba afbd c9e6 2c3d 4afd 8fbd 2ba3 973d
00000240: d8a3 2c3c 21ab 3dbd 57fa 29bd 1f58 50bd
00000250: 46af 47bc ee71 cfbb 3505 e53c 705b 363d
00000260: d588 133d 37dd 3bbc 9365 493d 9bf9 a9bd
00000270: 58a0 edbc 90a1 90bd 97b1 74bd e4d0 a6bc
00000280: 785b 3bbc 7c4e e53d af2e 8e3d 5162 80bc
00000290: dbc0 973c ddf0 1a3d 4466 81bd f21d fa3c
000002a0: 8ddd 60bd 1cbf 2e3c 0d5c a93d 4dfc e8bc
000002b0: dcf5 5dbd 6fdc 0dbd 0051 a4bd 1c76 5b3d
000002c0: f0da 643c 79ee 09bd 7d07 353c ddbe 933d
000002d0: cd28 e03c d35e febc c79c d23d 0dfc 03bd
000002e0: 7c3e b63d 3ebd d83b 6b75 ad3c 8c4f aa3d
000002f0: 8714 d53b 6222 b93c 90ec a13d 9528 8e3c
00000300: f535 10bc 7877 62bb 2b05 9e3d 87c1 db3c
00000310: 55a3 1bbd 15dd 3f3d 84e0 c2bc 3cca 4b3c
00000320: ecd5 83bd 5e78 983d f958 a83d 9376 58bd
00000330: 8a39 47bd 2b8b b73d 9ecf cc3c 99cc 8fbd
00000340: 8fcb b33d 03d9 93bd f8e3 603d 74bc 313d
00000350: 07f4 1fbd bf0a 4bbd 95e9 87bc b540 803c
00000360: c7dd 0ebd 79a0 483d 1757 f73b 3aaa a0bd
00000370: d4bd 67bd 505b 1cb9 3109 f43d d6e7 e7bc
00000380: a05d af3d 1b80 c3bc 7699 323d 1eef 223d
00000390: 4540 a43d 6469 083d 1697 e23d 7f6f 043e
000003a0: d027 a73d 6d73 a43d d3fd 923d 8af2 4d3c
000003b0: 89a5 08bc 90bd 7a3c ef94 7dbc b45c fbbc
000003c0: 30ac 82bd e697 9abb 73e7 3dbd af9d 5f3d
000003d0: c3e4 073d 1546 9d3d 49cf 17bd 137e 9dbd
000003e0: 5610 96ba 9eb5 9abd 96ec cabc 9348 873d
000003f0: 3ff3 9cbb b6ca d9bb 042d 7b3d 7bd2 213d
0.041657925 -0.008231683 0.016945655 -0.011009681 0.030721786 -0.037322924 -0.050566174 -0.03232478
-0.0047047315 0.024609484 0.14288068 0.13642852 0.11167842 0.10131661 0.104913294 0.05574132
0.0212525 -0.017110705 -0.07194787 0.01895242 -0.016258236 -0.037774645 0.052245885 0.056561574
-0.01743549 -0.07308267 0.07733417 -0.0047291806 -0.09075606 -0.039061293 -0.106329136 -0.06640502
-0.0819269 -0.031852614 -0.0056026145 -0.036787387 0.010490039 -0.05437334 0.08120898 -0.054073755
0.012670989 0.090375185 -0.03767215 0.04472359 -0.053899866 0.05482576 0.077068195 0.00057842274
0.07196458 0.082216375 0.05725088 0.056647617 -0.02040182 0.075079426 0.034701355 -0.020186737
-0.019962786 0.048007295 0.032766998 0.029699555 -0.040220115 0.007195707 0.07614071 0.024046343
0.00206709 0.06828642 0.016054433 0.038216334 0.062232442 -0.008571134 0.014074269 -0.004824375
-0.015807794 -0.002365998 0.014867067 0.07575469 0.06283314 0.09509502 0.030709855 0.07680027
0.109981015 0.09331282 0.14955471 0.06481302 0.02064923 0.120884664 0.12516339 -0.029653592
0.038769472 0.115025714 0.006645704 -0.0749418 0.069930084 -0.0022874763 0.0001460046 0.02886144
-0.06381757 -0.072293036 -0.0314229 -0.06681756 0.035048496 0.07187696 0.008173394 -0.0061908723
-0.082863286 0.052739702 0.02861994 -0.044083554 0.03843871 0.045111995 -0.07192045 -0.06379394
-0.019446304 0.087670475 -0.06326681 -0.047763202 0.091286376 0.013002783 0.05618582 0.042237468
-0.05833895 -0.011150368 -0.0799581 0.015137844 0.02216667 0.04562957 0.03941221 0.072583556
0.07998012 -0.06726004 0.025350675 0.0016703339 -0.061168004 -0.011373767 0.0050345645 0.03546108
-0.07866003 -0.084263615 0.03806516 0.028292166 -0.08580447 0.04221228 -0.07030733 0.07404169
0.01053711 -0.04630578 -0.04149851 -0.05086529 -0.012187785 -0.00633072 0.027956584 0.044520795
0.036019165 -0.011466316 0.049169134 -0.082995616 -0.029007122 -0.070620656 -0.059739675 -0.020363279
-0.011435382 0.1119661 0.06942498 -0.01567188 0.018524578 0.03782736 -0.06318334 0.030531857
-0.054898787 0.010665681 0.082695104 -0.028440619 -0.054189548 -0.03463405 -0.08023262 0.053579435
0.013968214 -0.03367469 0.011049149 0.07214139 0.027363205 -0.031051075 0.10283809 -0.032222796
0.08898637 0.0066143563 0.021174153 0.083159536 0.006502691 0.022599403 0.07906449 0.017353335
-0.008801927 -0.0034556072 0.077158295 0.02682568 -0.037997562 0.0468417 -0.023788698 0.012438353
-0.06437287 0.07444833 0.08220095 -0.052847456 -0.048638858 0.08962091 0.025001343 -0.07021446
0.0877906 -0.07219126 0.054904908 0.043392614 -0.039051082 -0.049570795 -0.016590873 0.015655855
-0.034879472 0.048981164 0.0075482237 -0.07844968 -0.05657752 -0.00014911336 0.119158156 -0.02830879
0.085627794 -0.023864796 0.043603383 0.03977882 0.08020071 0.033303633 0.110639736 0.12933157
0.081618905 0.08029828 0.071773194 0.012570033 -0.008340248 0.015303984 -0.015477403 -0.030683853
-0.063804984 -0.0047178147 -0.046363305 0.05459374 0.03317715 0.07679383 -0.037062917 -0.076900624
-0.001144896 -0.07554172 -0.024771016 0.06605639 -0.0047897394 -0.0066464795 0.061322227 0.03950737

conv4.bias f4 [16]
00000000: 69ef 5b3c e98a 363d 3fa6 04bd 4771 84bd
00000010: 84f0 ea3d b4b3 013e e9af db3d c96c f9bc
00000020: 6ddc df3d d9e5 fe3c 512e 0e3e 0409 97bc
00000030: 0d6f 77bd 35ce c03d c96c b3bd 42e3 593d
0.013423779 0.04456607 -0.032385107 -0.064669184 0.11471656 0.12666208 0.107269116 -0.03044738
0.10930715 0.03111546 0.13884856 -0.018436916 -0.06040864 0.09414331 -0.087609835 0.053195246

conv5.weight f4 [16, 16, 3, 3]
00000000: 1294 ef3c 7d60 babd ebbf 50bc 6815 493d
00000010: 822c 32bd 4057 353d 0abd 1abd e8b3 dbbc
00000020: 5035 37bd ea0b 82bd 709e 68bd e294 c03d
00000030: 550f 0e3d 9161 903d d9b1 ea3c c5ee 38bd
00000040: 2d79 82bd 62b3 893d eced 8cbd 77f4 6b3d
00000050: 5b0f 14bc ef2c 023d 99d6 803d bf2a 513d
00000060: 0cbf 69bd 76d9 46bd 7287 a03d f48f 943c
00000070: 398c 32bd 30ea 45bc 1e8c 3c3d 54d5 abbd
00000080: b39a 8e3d 0a86 dabc faa4 20bd f7b0 43bc
00000090: b85c d23d 76fa 813d dcd7 62bc 7f62 903d
000000a0: 1a2e 573d 5ed9 bd3d 8d03 44bc ea0b a23d
000000b0: 729d 10bc 7c2d 18bd d57c 393d 2a2b 893d
000000c0: 41bf 6b3d 75e2 c2bb b4c9 383d 178a 70bc
000000d0: c477 f8bc 2a4a b83d 80b4 9e3d 59c0 ca3c
000000e0: 773e 6ebd 1c3e 023d bfc8 a9bc c5d3 f83b
000000f0: da09 6fbd fa56 803c 59a3 40bd ad5b 9d3d
00000100: 9002 913c cbb7 56bd 64ba 59bc ccf4 86bc
00000110: aa85 b73d 3a54 8dbd be57 663d 05a2 f5bc
00000120: fc2f 063d 55a8 153d 7422 533d e9e1 1fbd
00000130: 4712 92bd 80dc b63d 92fa 8abd a72f 343d
00000140: 5e3e a13b 4354 55bd 20ac b8bd e886 2fbd
00000150: 045b 9a3c 9bca 4f3d 1558 ceba 9c97 77bd
00000160: 0591 3ebd 5324 afbc 98c4 d73d 559a 7abd
00000170: 6d73 9d3d 9184 393d 2dd6 eb3c 64e7 8dbc
00000180: 6aa9 e93c dcf7 573d 29fd 623d 7d83 febc
00000190: 8b7f bbbc c1c0 c8bd ea74 763d 63d2 a13d
000001a0: a2d7 5cbd 8526 5ebd e491 46bd 4ddb debb
000001b0: b2b6 e2bc cbd8 863d 317a f03c 8fe6 53bd
000001c0: b729 0e3d 72bf 9abd b62d 2f3d dfee 413d
000001d0: c080 58bd 1fec cdbc 05d1 7a3d 02f0 383d
000001e0: 75f1 81b9 40ec 503c 77f2 063d 0f02 39bd
000001f0: 4794 883d 6613 d63c 3916 78b9 9db6 12bd
00000200: d0b9 993d dbf2 873d fa64 6dbd e832 703c
00000210: dbc2 b2ba 3fcc 25bd c4f1 e33b 0337 1e3d
00000220: b4ae c43c 69de f83c 9ff2 5f3d 0a74 a93d
00000230: 8f07 5ebd 8303 bbbd 6a6d 8bbd 9a90 a63c
00000240: 6fa8 1f3d 6305 aabd e5c4 86bc 5bf9 7cbc
00000250: 087b 6ebd 7531 283d 5283 b33d 62f1 ebbc
00000260: 82a8 b23d 0d7b 35bd 8494 593c 4907 043d
00000270: 8892 4e3d eff7 b0bc 544c 0f3d 4885 713c
00000280: e4c2 773d ff1c 1a3d f4cf 2bbd 6ca7 95bd
00000290: 7362 9a3d b7ff 32bd 1b58 483d 9b97 483c
000002a0: 6a8c 36bd 8a79 3f3d 2723 313d fb8a a93d
000002b0: 10ed b03c c2f1 8ebd 80af c43c 6c18 943d
000002c0: 814d 683d f11f 94bd efaf 7abc d372 77bd
000002d0: f165 8ebd ddc7 94bd d6ba c9bd 2a62 d03d
000002e0: 557c 633d e839 f73d 0b16 9d3d b5a8 d5bb
000002f0: e4c6 4bbd a1af 65bd ca9d 9a3d 9705 793d
00000300: 4967 bbbd 8db6 9fbc 115b 34bd 1993 a1bc
00000310: 2e21 4bbc 060d 79bd 28b2 65bb 4ea6 d53c
00000320: e87f 7b3a 70f0 97bd 191f a8bd fd1c 88bd
00000330: 02f8 763d ce15 f8bc 847f 723d 70b2 2d3d
00000340: 57b6 0f3d 13f4 18bd dcb9 ca3c 1e00 67bd
00000350: 1796 25bd dbf3 3ebd c26c 793d e036 40bc
00000360: 7bab d53d f0ec 093e fe10 78bd 4ac5 ee3c
00000370: c7a2 c5bd 1fd8 d8bd d969 d4bd 9a3c 773c
00000380: 7da7 84bd f62e e03d 67e1 bf3c f07f 2fbc
00000390: 6f12 dbbc 0d52 f8bc b97d 07bd 1a9a c83c
000003a0: 853f 913d 266f b03d 5858 bc3d e854 4d3d
000003b0: c7b0 af3d 55c5 c73c a875 b9bd 9ece bbbc
000003c0: 37d4 d7bc 8792 6a3d 714b 4bbc 1e48 25bc
000003d0: 7592 4bbd 1f03 98bc 1260 1abb 91f1 a7bc
000003e0: 77e7 afbb c3eb da3c 121b ae3d 632d 08bd
000003f0: 16a5 5fbc 7abd 593d bcdb 9d3d 5352 80bd
0.02924541 -0.09100435 -0.012741069 0.04909268 -0.043499477 0.04427266 -0.037777938 -0.026819184
-0.044728577 -0.06349929 -0.056791723 0.09403397 0.03468259 0.07049859 0.028649257 -0.045149583
-0.06370769 0.06723668 -0.068813175 0.057606187 -0.009036864 0.031781133 0.06290931 0.051066156
-0.057066962 -0.04854723 0.07838334 0.018135048 -0.043590758 -0.01207976 0.046032064 -0.083902985
0.069631 -0.026675243 -0.039219834 -0.011944047 0.10271591 0.063466 -0.01384541 0.07050037
0.0525342 0.09269975 -0.011963737 0.07912429 -0.0088266 -0.037152752 0.045285065 0.06697686
0.05755544 -0.005947406 0.045114234 -0.014681361 -0.030330546 0.08998521 0.077492714 0.024749922
-0.05816504 0.031797513 -0.020725606 0.0075936043 -0.058359005 0.015666474 -0.04703078 0.076835014
0.017701417 -0.052421372 -0.013289068 -0.01647415 0.08961041 -0.069008306 0.05623602 -0.029984483
0.032760605 0.036537487 0.05154653 -0.039033804 -0.071323924 0.08928776 -0.06786074 0.043990757
0.004920765 -0.05208231 -0.09017205 -0.042853266 0.018842228 0.05073033 -0.0015742803 -0.06044732
-0.04652502 -0.021379625 0.10535544 -0.06118234 0.07688031 0.04529244 0.02878865 -0.01732225
0.028523166 0.05272661 0.055417214 -0.031068558 -0.022887966 -0.0980239 0.06017009 0.07901456
-0.05391658 -0.054235954 -0.048478976 -0.006801045 -0.027675007 0.06584319 0.02935514 -0.05173355
0.03470775 -0.075560465 0.042768203 0.047346946 -0.05285716 -0.025137005 0.061234493 0.045150764
-0.00024784697 0.012751639 0.032946076 -0.04516798 0.06668907 0.026132297 -0.00023659402 -0.035818685
0.07506144 0.06638118 -0.057957627 0.0146605745 -0.0013638394 -0.040477987 0.006956311 0.038626682
0.024009086 0.03037949 0.05467474 0.08274086 -0.054206427 -0.09131529 -0.068079785 0.020332623
0.03897899 -0.08301809 -0.016451309 -0.01544031 -0.0582228 0.04106279 0.08765282 -0.028801624
0.087235466 -0.044306803 0.013280038 0.03223351 0.05043271 -0.021602599 0.0349849 0.014741249
0.060488597 0.03762531 -0.041946366 -0.07307324 0.07538309 -0.0437009 0.04891215 0.012243177
-0.044567503 0.046746768 0.043246415 0.082784615 0.021597415 -0.069797054 0.024009466 0.072312206
0.05671454 -0.07232655 -0.015300735 -0.06041224 -0.069530375 -0.072646834 -0.09850089 0.10174973
0.055538494 0.120715916 0.0767022 -0.0065203556 -0.049750224 -0.056075696 0.07549627 0.060796347
-0.091505595 -0.019496227 -0.04403216 -0.019723462 -0.012398047 -0.060803436 -0.0035048816 0.026080277
0.00095939497 -0.07418907 -0.082090564 -0.06646154 0.060295112 -0.030283835 0.05920364 0.0424065
0.035086002 -0.037342142 0.024746828 -0.056396596 -0.04042634 -0.046619277 0.060894735 -0.011731833
0.10433098 0.1346929 -0.06056308 0.02914681 -0.09650188 -0.10588097 -0.10371751 0.015090132
-0.06477258 0.10946457 0.02342291 -0.010711655 -0.026742188 -0.030312562 -0.033078883 0.024487544
0.070921935 0.0861495 0.09196538 0.0501298 0.085786395 0.024386087 -0.09055644 -0.022925671
-0.02634631 0.057268646 -0.012408123 -0.010087995 -0.04970022 -0.018556176 -0.0023555798 -0.02050093
-0.005368169 0.026723748 0.08501257 -0.03324641 -0.013650199 0.053159215 0.07707927 -0.06265702

conv5.bias f4 [16]
00000000: 9c81 693d 1d4d 023d 245e 13be 3dc4 6d3e
00000010: 9d31 82bc 4e1c efbb e324 b7bc fcd7 dbbd
00000020: fbdd 313d a055 3dbd db5b acbd 70fb 473d
00000030: 9cf8 e7bc 865c 8bbc b5e1 f1bb 6cd1 32bc
0.05700837 0.031811822 -0.1439138 0.2321939 -0.015892798 -0.0072970754 -0.022356456 -0.10734555
0.043424588 -0.046224236 -0.084159575 0.048823774 -0.028316788 -0.017011892 -0.0073816427 -0.010914188

conv6.weight f4 [16, 16, 3, 3]
00000000: 803b 95bc d1b6 a13d 44be 853c d980 f03c
00000010: 1f12 eeba 7739 033d 7dba 14bd dbfc 51bd
00000020: 476d 263d d630 3bbd 8cee d63c 217b c63c
00000030: 2eb5 883c e7ec 4bbd 4c9a b03d 30e0 4d3d
00000040: e1eb 1e3d b2c3 c93d db04 e0bc 54e8 91bd
00000050: c792 59bd d3d9 c13c 87ae 093c 9365 ba3d
00000060: bdc6 12bd b2bc 1cbd c157 873d 7c4a 343d
00000070: f6bf 6cbd 4dba 12bd c807 d9bc edfb 4bbc
00000080: 375d 2f3d 19db 853d e31b 7a3d 5818 aa3d
00000090: 5ad0 24bc 9347 41bc eb1f 823d a526 d63d
000000a0: ab31 c83d 1119 37bd 2af0 963d 2e3b 593c
000000b0: b060 823c 21e6 9c3c a4dd adbd a5e9 89bc
000000c0: 0d5a 98bc 2de4 8e3c 5271 033e ce46 043e
000000d0: 625c 3c3d e567 d33d 99a7 113d 6f00 273d
000000e0: e759 18bd a4a6 b23d a3e1 1b3d cd7d 2dbc
000000f0: def5 1e3c 0dbd 7bbd 93d9 39bd b9a2 68bd
00000100: 5482 12bd 9850 2c3d af93 8d3d 68f9 a13d
00000110: 0486 80bd 3cf4 93bc f35e 943d 53af 30bd
00000120: 68cc 3fbc a849 4b3c c5b6 9f3d b99c 303d
00000130: 4030 8a3d 699c ba3d 09cf ee3c 5783 9bbb
00000140: 7fe7 d53d 0e2a 8c3d e4c6 633d 53dd 143d
00000150: f628 b3bd 1d0c 21bc ae43 5abc a97c 0d3b
00000160: d987 8cbd a12d fbbc a0f4 0b3d c4d9 2f3c
00000170: 85c7 9d3d 6eee 4cbd 3ac5 5b3c bc99 a33d
00000180: 65a6 79bc 0746 8e3d a666 47bb 0212 d93c
00000190: 56c9 a03d 7771 953d afc8 633d d665 11bd
000001a0: 5412 16bc 8763 18be 535f 1dbe d580 29be
000001b0: ceb4 83bd c26f 4c3d f506 4cbd b48e adbd
000001c0: 06ca c4bd 67bf 57bd df73 53bd 4a84 39bc
000001d0: 9723 953c 6302 213d 7924 133d 4ec4 2cbd
000001e0: 5ed8 143d d9dc 13bd e5ea e8bc 17b8 93bd
000001f0: eb19 3a3d 834e 90bd f055 4fbc 6d9e e33c
00000200: 270e 3e3d 8aec 6e3c 13b7 d33c 9337 ecbc
00000210: 7f1e 5c3d 9081 fe3c 691f 683b 77c9 2dbb
00000220: 4638 28bb 310c ac3d c40b 973d c565 983d
00000230: 71a0 933d d7e3 cebd 89a1 cebd eb26 923c
00000240: 6a04 f9bc fced 9abd 0f60 3ebd 9e7f b83c
00000250: ea32 b43d 2cae 9b3c c3ea 463c c5d1 9d3c
00000260: 0c86 6b3d fe19 92bc bdea 0cbd c751 3f3d
00000270: d624 9d3c 8239 2abd df4d 19bb 6567 04bd
00000280: 41da 58bc bb72 b33d 945e a5bd fd7a a3bd
00000290: fafe 7abd c145 2b3d 59bb 8bbc 211d a9bd
000002a0: 21a8 17bd 4897 8ebc b22a 31bd 6a3c f9bc
000002b0: 99db 0ebd 5c70 0dbd 0ce1 433d 6a60 a83b
000002c0: fa69 063e 4878 d1ba a1ab eb3d 3d23 54bd
000002d0: 2439 23bd 19d2 7bbc d549 bbba 134e 7d3d
000002e0: 0af6 ffbc 4cf4 713d 3192 99bd 3ae1 003c
000002f0: 340b 12bd 29ab ac3c 4cf0 803d 2c4e 00bb
00000300: 1395 2c3d 839e 85bc a70d 3a3d 5a45 e9bc
00000310: d313 3d3c 2942 1bbd 7826 bbb9 bb6f 6dbd
00000320: 3bc9 873c 8c76 edbc afc5 a3bc 2436 6d3d
00000330: c10e 0cbd 376e 803d 82d0 b03d 344d b63d
00000340: 1cf7 933d de6b 853d 32e0 c53c 61de 12bc
00000350: f69b e63c 0ae5 d4ba d532 5b3d b7c1 7bbd
00000360: 0325 afbd 0080 4b3d 1e5d 42bd 05d8 e8bb
00000370: 4850 3ebd 06c9 233d 424b e9bc cf14 d63d
00000380: 0950 973d bead 8ebd ab2b a3bd 6313 5abd
00000390: e5db a6bd 5a5a 303c 1925 80bd da9e 7f3c
000003a0: 81e6 db3c a700 823d 93df 83bd 4387 16bd
000003b0: 6fc8 473d aa52 9fbd bba4 52bd ebf5 38bd
000003c0: e40d 3a3d 1e78 3cbd 460c 0a3d 8856 9bbc
000003d0: e382 143d ea40 e5bd 9a89 9c3b 1aa9 b63d
000003e0: 2a74 503d eec4 413b 0ed1 193e 226c 253e
000003f0: 3617 5abd 4bb9 b9bd 1aca b4bd d629 aebd
-0.018216848 0.078961976 0.016326077 0.029358314 -0.001816336 0.032037225 -0.03631066 -0.051266532
0.04063156 -0.04570087 0.026236795 0.024228634 0.016687956 -0.049786475 0.0862318 0.05026263
0.03879917 0.09851779 -0.027346065 -0.07124391 -0.053118493 0.023663437 0.008403427 0.09101405
-0.035834063 -0.03826589 0.066085346 0.044016346 -0.057800256 -0.0358222 -0.026492968 -0.0124502005
0.042813506 0.0653593 0.06106175 0.083054245 -0.0100594405 -0.01179685 0.06353744 0.104565896
0.097750984 -0.04470164 0.073700264 0.013258738 0.015915245 0.019152703 -0.0848954 -0.016835043
-0.018597627 0.017442787 0.12836197 0.12917635 0.04598654 0.10322551 0.035560224 0.040771898
-0.037195113 0.087231904 0.03805698 -0.010589075 0.009702174 -0.06145959 -0.04537351 -0.05679581
-0.03576882 0.042069048 0.06912934 0.079088986 -0.062755615 -0.018060796 0.072446726 -0.043135952
-0.011706449 0.012407698 0.077985324 0.043118212 0.06747484 0.09111864 0.029151456 -0.0047458815
0.10444545 0.06843959 0.0556096 0.036343884 -0.08748047 -0.009829548 -0.0133218 0.0021589196
-0.068618484 -0.030661406 0.03416884 0.010733072 0.07704071 -0.05003207 0.013413722 0.07988307
-0.015237425 0.069469504 -0.0030426173 0.026497845 0.07850902 0.07297032 0.05561131 -0.03549751
-0.009159643 -0.14881717 -0.15368395 -0.16553052 -0.0643097 0.049911268 -0.049811322 -0.08474484
-0.096088454 -0.05267277 -0.051624175 -0.011323044 0.018205447 0.039308917 0.035923455 -0.0421794
0.036339156 -0.03609929 -0.028432319 -0.07212847 0.045434874 -0.07046225 -0.012654766 0.027785504
0.046400215 0.0145827625 0.025844133 -0.028835094 0.05374002 0.03106764 0.0035419113 -0.0026517787
-0.0025668307 0.08400763 0.07375291 0.07441286 0.07208336 -0.10102051 -0.10089404 0.017840823
-0.030397613 -0.07564923 -0.046478327 0.02252179 0.087987736 0.01900395 0.0121409325 0.019265065
0.057500884 -0.01783466 -0.03440355 0.04670885 0.019182604 -0.04155875 -0.0023392362 -0.032325167
-0.01323563 0.087621175 -0.0807468 -0.079824425 -0.06127832 0.04181457 -0.017057108 -0.08257509
-0.037025575 -0.01740612 -0.043253608 -0.030424315 -0.034877393 -0.034530982 0.047822043 0.0051384466
0.13126364 -0.0015981281 0.11507345 -0.05179142 -0.039849415 -0.015369915 -0.0014288971 0.061842036
-0.03124525 0.05907087 -0.07498587 0.007866198 -0.035655215 0.02107771 0.06295833 -0.0019577844
0.042134356 -0.016310936 0.045423176 -0.028475452 0.011540371 -0.037904892 -0.0003569608 -0.057967883
0.016575446 -0.028987192 -0.019991724 0.05791296 -0.034193758 0.06271022 0.0863352 0.08901444
0.07224867 0.06514715 0.024154756 -0.008964152 0.02815054 -0.0016242575 0.053515274 -0.061464038
-0.08551981 0.049682617 -0.047452085 -0.0071058297 -0.04646328 0.039986633 -0.028478269 0.10453188
0.07388312 -0.069667324 -0.079673134 -0.053241145 -0.0814741 0.010763729 -0.06257076 0.015601838
0.026843311 0.06347781 -0.06439128 -0.03675009 0.048775133 -0.07779439 -0.05142663 -0.0451564
0.045423403 -0.04601299 0.03370311 -0.01896216 0.036257636 -0.11194022 0.0047771456 0.08918972
0.050892033 0.0029566842 0.15021154 0.1615453 -0.053244792 -0.09068545 -0.0882761 -0.08504073

conv6.bias f4 [16]
00000000: a31a 21bd b099 893e 4742 6cbb d960 473c
00000010: 83ae 78bc 23e6 03ba 530b 9e3c 197f 80bd
00000020: 2a71 293e 71a4 943d ba6d 993d 1fa8 9bbd
00000030: 8941 303d 55ec efbd 23aa fc3c 45d5 983e
-0.039332043 0.26875067 -0.0036050247 0.012169086 -0.015178326 -0.00050315465 0.01929251 -0.06274242
0.16547075 0.07257927 0.07491632 -0.07600426 0.04303125 -0.11714999 0.030842846 0.29850212

fc.weight f4 [10, 16]
00000000: 34aa 823e 54ff afbc c3b4 1d3e ac07 a73c
00000010: ca93 54bc 0608 88be 317b 0dbe c424 69be
00000020: 4613 78bd f48f 383e f718 67bd e14d 4bbe
00000030: fa5d 143e 0023 d03a 84ab aabd b353 c23e
00000040: 6521 6f3e c9b8 e3bd acd0 16bd 49ec af3e
00000050: 1e65 01be 64f5 b0be 0b79 8d3d 5cfd 53be
00000060: 347e b2be ea61 e2bd ebf1 92bd ed51 2f3e
00000070: adf7 c23e a231 bd3e 071c 7b3d 2977 4abd
00000080: 01c2 20bd f92f 613d 6b3b 7dbe c129 9abe
00000090: 5d86 5a3e 9a9e 543e b658 1c3e 20de 76be
000000a0: e2fe 7e3e 2cb9 8d3b e3ea 043e 847c 1cbe
000000b0: cd61 03bd 2430 b73d 1291 853e fc9e b1bb
000000c0: 18c9 0a3d 4635 31be bdb1 793d d33a 77be
000000d0: 3662 ee3d 2be7 633e 3633 babb 33f5 adbd
000000e0: eac8 3d3e e306 003e c1f3 923c b382 8f3e
000000f0: a63c a1be 58f2 c4bd a6ef d23c f6db 23be
00000100: 9c9e c2bd 1624 953e c0c9 11bd 51a4 82be
00000110: 9f7b cbbd 97f6 e5bd e071 203e 91bb 133d
00000120: 2442 e93d f7dc acbd 9d45 2c3e d322 93bd
00000130: 4404 ef3c 6489 15be cd0a 6fbe 2555 933c
00000140: 737d 81be 636e 6ebe e2ce f73d aa6f 97be
00000150: 3c66 abba bc24 bd3d 5a62 cfbd 87f6 793e
00000160: 7be3 8e3e ef6a 5f3e 3da4 1ebe 84ca 883e
00000170: 1b46 b4be 5bc8 203e ec5c 2f3d c2d0 07be
00000180: d67f d0bd 4a3c cebc 8b9f 083d 798c 84bd
00000190: 2648 de3d 7c8d 603d 5b7a 783e 39e8 f5bd
000001a0: 1789 183e 0c11 56be 5070 42be 363e 5f3e
000001b0: 5623 99be 7b39 013e 2e92 b8bb c1ca 66bd
000001c0: fcee 01be 1c3d 00be d6de 4cbd 3de0 553e
000001d0: 1d82 0c3d 5c96 07be ab05 cdbc d248 1ebe
000001e0: 9602 213e c462 953e ffb2 8dbe f2c8 fd3d
000001f0: 49fb 6ebd d7e0 b23d ac1c 1bbe 12ac c7be
00000200: bff1 7c3d 2e0a dd3d 8825 54be deca 573e
00000210: 9222 0abe 45d2 9bbe a0cb 16be 1eea 363d
00000220: 4aba 7dbe e772 3b3e 1c6d 22be 6861 8fbe
00000230: 0f5a 103d e146 da3d ca08 6b3e d1d2 b83e
00000240: 7905 86bd 2cc9 01be 9085 bebd f0da b53e
00000250: 8670 2abe c169 963d f97e 093e e913 363e
00000260: 5921 b9be b5c1 a13e 8f3c cfbd 3c8c a93d
00000270: 5f1c 873e 1367 85bd 5365 4e3e acd6 57be
0.2552048 -0.021484055 0.15400986 0.0203894 -0.012974689 -0.2656862 -0.13816525 -0.22767931
-0.060565256 0.18023664 -0.056420293 -0.19853927 0.14488974 0.0015879571 -0.08333495 0.37954482
0.23352583 -0.11119229 -0.0368201 0.3435996 -0.1263623 -0.34562218 0.06907853 -0.20702118
-0.3486191 -0.11053832 -0.071750484 0.17121096 0.38079587 0.3695193 0.061306026 -0.049430046
-0.039247517 0.05497739 -0.24729697 -0.3010998 0.21340318 0.20763627 0.15268216 -0.24108171
0.24901918 0.0043250527 0.12980227 -0.15281874 -0.032075692 0.08944729 0.26087242 -0.0054205637
0.033883184 -0.17305478 0.06096052 -0.24143533 0.11639826 0.22256152 -0.0056823744 -0.08494034
0.18533674 0.12502627 0.017938497 0.28029403 -0.31491584 -0.09616536 0.025749039 -0.16001877
-0.095029086 0.29129094 -0.035592794 -0.25515988 -0.09935688 -0.11228674 0.1566844 0.03606755
0.113895684 -0.08440583 0.1682343 -0.071843766 0.029176839 -0.14603192 -0.23343964 0.017984936
-0.25291023 -0.23284297 0.12100007 -0.2957738 -0.0013076733 0.09235522 -0.10126181 0.24410449
0.2790793 0.21818136 -0.1549234 0.26717007 -0.35209736 0.1570143 0.042813227 -0.13263229
-0.10180633 -0.025175232 0.033355277 -0.064721055 0.10853605 0.05482243 0.24265425 -0.120071836
0.14896046 -0.2090494 -0.18988156 0.21801075 -0.29909772 0.12619583 -0.0056326604 -0.056345705
-0.12688822 -0.12523311 -0.0500172 0.20886321 0.034303773 -0.13240951 -0.025027117 -0.15457466
0.15723643 0.29176915 -0.27675626 0.12391843 -0.058345113 0.08734291 -0.15147656 -0.38998467
0.061753985 0.10792957 -0.20717442 0.21073481 -0.1348975 -0.3043386 -0.14726114 0.044656865
-0.24778095 0.1830555 -0.15861934 -0.28004003 0.035242137 0.1065805 0.22952572 0.3609834
-0.065440126 -0.12674397 -0.09302819 0.355186 -0.16644487 0.0734439 0.13427342 0.17781033
-0.36158255 0.315931 -0.101189725 0.08278701 0.26388833 -0.065138005 0.2015584 -0.21077985

fc.bias f4 [10]
00000000: f4a4 e7bd 15cd 54be a551 6d3d 0121 dabc
00000010: ebf1 963e 7a34 d6bd d652 803d 6abd 27be
00000020: 3276 273d 29c1 adbe
-0.11310759 -0.20781358 0.05793919 -0.026627066 0.29481444 -0.10459228 0.062658 -0.1638085
0.040884204 -0.33936432
