net.pth (torch_old, 28633 bytes, 6 tensors)

conv1.weight f4 [6, 3, 5, 5]
000000 3b 24 91 3b df 14 04 be c3 7d 36 bd 5e 15 94 bd
       0.004429368 -0.12898587 -0.04455353 -0.07230638
000010 d4 47 77 bd 8f f5 e0 bc da 8f f1 bd fe 9c 33 be
       -0.060371235 -0.027460841 -0.11795016 -0.17540357
000020 4f 0d ea bd 30 c9 29 bc 76 27 8a be c9 f4 2e be
       -0.1142832 -0.010362908 -0.2698323 -0.17085566
000030 28 d2 c4 bd 1b ec 20 bd 65 bf ad bc 67 65 86 be
       -0.096103966 -0.039287668 -0.021209428 -0.2624924
000040 8c 43 d9 bd ff df 15 be e1 e9 9d bc a6 54 4f bd
       -0.10608587 -0.14636229 -0.019276561 -0.050617836
000050 d8 23 3d bd 4e 43 d9 bb d4 00 89 bc 32 2d 10 be
       -0.04617676 -0.006630338 -0.016724028 -0.1407974
000060 c6 7b 57 be 8d bf 9e 3c 97 06 1e 3e 91 97 ed bb
       -0.2104331 0.019378448 0.15432201 -0.007250734
000070 91 ac a1 b9 f4 6e 02 be a1 58 d7 bd 48 de 04 bd
       -0.00030836885 -0.12737638 -0.105149515 -0.032438546
000080 4b 64 ac 3d e4 14 80 3d 25 b9 dc bc f9 66 94 3b
       0.08417567 0.062539846 -0.026943753 0.004528877
000090 f8 a7 8a bd d9 ed 27 3e 32 1d 8d 3d c6 c9 fc 3d
       -0.06770319 0.16399325 0.06890334 0.12343173
0000a0 9a 22 1e be e6 bc 9a 3b db d8 e8 bc 51 27 0b 3e
       -0.15442887 0.0047222255 -0.028423717 0.13589217
0000b0 6d 55 2f bc 2f 88 13 bd 85 ae c2 bd 00 1a 72 3d
       -0.010701519 -0.036018547 -0.09505943 0.059106827
0000c0 a6 9d 0f bd 9b 46 0b be 05 30 11 3e 71 a2 50 3e
       -0.035062455 -0.13601153 0.14178474 0.20374466
0000d0 33 a8 93 3d 5a 2b 36 be 09 e0 fd bd b7 9a d5 3d
       0.07209816 -0.17789975 -0.12396247 0.104299
0000e0 86 42 5f 3e 70 cb a4 3e 27 d5 96 3e 52 c1 16 3d
       0.2180272 0.3218646 0.29459497 0.03680546
0000f0 30 2d 87 3d c7 6e 11 3e 99 4e 23 3e 38 f4 61 3e
       0.06600416 0.14202414 0.15947951 0.22065818
000100 46 47 31 3d 22 1a df 3d 40 eb 4b 3e 2b d5 b3 3e
       0.043280862 0.10893656 0.1991396 0.35123572
000110 a4 2e e7 3d b4 68 ff bd 6a 08 c3 3b c5 cf 29 3e
       0.11288193 -0.124711424 0.005951931 0.16583164
000120 1a 4d 57 3e 8e e9 12 3d bc 81 e1 bd 9c 2b b2 3e
       0.21025506 0.035867266 -0.11011073 0.34798896
000130 58 09 22 3e 33 43 55 3e 56 b3 94 3e bf 37 c1 3d
       0.15823877 0.20826416 0.29043072 0.09434461
000140 2c e9 01 3f c9 1c 14 3f 8f ab 18 3f 48 a0 d9 3e
       0.5074642 0.5785642 0.5963678 0.42505097
000150 80 3f 72 3e af e2 d0 bd 2a a0 40 be b4 bf 5c be
       0.23657036 -0.101994865 -0.18811098 -0.21557504
000160 eb 38 23 bd b2 f5 05 be 59 61 9d be 5c 60 18 bf
       -0.039849203 -0.13082007 -0.30738333 -0.5952203
000170 26 01 e3 be 2b 63 e7 be 8b fc 52 be f6 1f 38 be
       -0.44336814 -0.45192847 -0.2060415 -0.17980942
000180 55 aa 41 bd db 83 bd bd 84 b2 ae bd 64 52 eb bd
       -0.047281582 -0.09253665 -0.08530143 -0.11490324
000190 4b 9f 94 bd 5b 03 76 be 52 d2 ca bd d9 80 0d be
       -0.07256945 -0.24024718 -0.09903397 -0.13818683
0001a0 09 b5 40 be fb a9 27 3e 89 36 a4 3e 4c 38 bf 3e
       -0.1881906 0.16373436 0.32072857 0.3734764
0001b0 e5 55 a8 3d 7c 10 d4 3d 29 66 e5 bd 0e 90 5b be
       0.08219508 0.10354707 -0.11201126 -0.21441671
0001c0 3c 85 38 be 2b 02 48 be f1 bc 3a be a3 85 af bd
       -0.18019575 -0.19532077 -0.18236138 -0.08570411
0001d0 21 ee a6 be 4f 0c ea be c0 bc 38 be 85 ce 1c be
       -0.32603553 -0.45712516 -0.18040752 -0.15313156
0001e0 bb f0 62 ba 98 b9 cf 3d 05 58 a4 3e 59 00 21 3e
       -0.00086570875 0.10142821 0.32098404 0.15722789
0001f0 63 4c 98 3e 77 b6 7e be d3 7e d1 be f5 9c 93 be
       0.29745778 -0.24874292 -0.40917072 -0.28830686
000200 f9 8d 09 be 43 92 17 be 7b 02 a9 3d fd 79 8f 3e
       -0.13433065 -0.14801888 0.08252426 0.28022757
000210 87 21 93 3e 77 dd d5 3d cb 4d d8 3d 98 f3 2d bd
       0.28736517 0.10442632 0.10561713 -0.042468637
000220 c7 16 73 bd 05 c2 5e 3d 24 b3 68 bd b3 f9 87 3d
       -0.059347894 0.05438425 -0.056811467 0.06639423
000230 12 5f 8a 3d 26 e8 96 bd 01 99 2b be ff f3 59 3d
       0.067564145 -0.073684976 -0.16757585 0.05321121
000240 c5 79 3c bd b8 25 ba 3e 82 9a 4e 3e 3c 27 d7 3e
       -0.046014566 0.36356902 0.20176128 0.4202212
000250 6f cd 4c 3e 5a f5 0b 3e d6 30 a1 bd 68 90 bf bd
       0.20000242 0.13667813 -0.07870643 -0.09353715
000260 eb f9 11 bd 80 e6 47 be f2 68 6a 3e 84 19 b3 bd
       -0.03563873 -0.19521523 0.22891596 -0.08745101
000270 79 9e fe 3d 5c 86 73 3e 3c e4 64 be 30 57 8a bd
       0.1243257 0.23781723 -0.2235269 -0.06754911
000280 44 10 80 be 76 f3 8e 3d 5d 3f 05 3f 27 23 20 be
       -0.2501241 0.0698003 0.5204981 -0.1563841
000290 a3 2e 91 be 96 d5 35 be 5c 6a 77 3d 53 46 b1 3e
       -0.28355893 -0.17757258 0.060404167 0.34623966
0002a0 df 21 d9 3c 19 d8 93 be 59 6a 10 be ca 70 33 3e
       0.026505409 -0.28875807 -0.14103068 0.17523494
0002b0 08 7d 94 3e 2b 69 c3 3c 28 b3 ce bd a4 09 a0 3c
       0.2900164 0.023853859 -0.10092765 0.019535847
0002c0 81 2b ff 3d e4 60 44 3d 66 bf 79 be 89 c2 66 3d
       0.124594696 0.047943965 -0.24389419 0.056337867
0002d0 44 b8 02 be f4 4e 58 3e 65 af 83 3e 2f 97 d0 be
       -0.12765604 0.21123868 0.25719753 -0.40740344
0002e0 cf 3e 7d bd 5f 98 06 be fe fe 10 3e 32 16 c1 3e
       -0.061827477 -0.13144062 0.14159772 0.37712246
0002f0 db b7 48 be f9 ff b4 be 01 39 88 be f3 f9 2b 3e
       -0.19601385 -0.35351542 -0.2660599 0.16794567
000300 06 5d e1 3e d1 3b 36 be 7d 01 bc be 94 8c 2d be
       0.44016284 -0.17796256 -0.36719885 -0.16948158
000310 fc 51 09 3e 21 23 8c 3e 64 24 a6 3c 35 29 0d be
       0.13410181 0.2737055 0.020281024 -0.1378525
000320 89 78 92 bd 2d e8 16 3e dd 90 26 3e 4a ea 6f be
       -0.071518965 0.14737006 0.16266198 -0.23429218
000330 1a 88 00 bd be 65 17 be 26 ec 7d 3d dd c2 b2 3e
       -0.031379797 -0.14784905 0.061992787 0.34914294
000340 6c f8 b7 be 83 ed 48 be 0d d9 4b be 90 ae 78 3e
       -0.35931718 -0.19621854 -0.19907017 0.2428534
000350 74 26 12 3f f2 df d8 bd da ef 99 be b6 13 aa be
       0.57089925 -0.10589589 -0.30065805 -0.33218163
000360 f2 9a a4 3d 68 1e b5 3e 77 0b 80 3d 8a cb 6e be
       0.08037366 0.3537476 0.06252187 -0.23319831
000370 ca 75 ce bd 6e 94 3d 3c 91 22 85 3e 4c 6c 81 3d
       -0.1008106 0.011571033 0.26002935 0.06319484
000380 d4 2d c9 bd 53 bd 23 3e 26 9d ec 3d d0 4f 73 3e
       -0.09823194 0.1599019 0.11553411 0.23760915
000390 38 b7 8b 3e 26 ca 49 3e cb 95 a9 3c 64 ae b3 3d
       0.27288222 0.1970602 0.02070131 0.08773497
0003a0 8a 4e 47 3e 7b 01 8b 3e 27 d0 2f bc ab f8 bf 3c
       0.19463554 0.27149567 -0.01073078 0.023434004
0003b0 37 1c 2e 3d 0d 2c 8c 3e 91 78 2d bc c9 9b 75 be
       0.042507377 0.27377358 -0.010587827 -0.23985209
0003c0 5d 7e 19 3e e2 19 0c 3e 94 af 23 be ec 9c 24 be
       0.1498961 0.13681749 -0.15984946 -0.16075486
0003d0 1f 4f 96 bb d8 7b 4b 3e 95 bd b8 bd 28 f7 4f be
       -0.0045870687 0.19871461 -0.09020535 -0.20309126
0003e0 dd 90 8e be 16 e3 26 3e 5f 0a dc bd b9 11 96 3d
       -0.27844897 0.16297564 -0.10744166 0.07327599
0003f0 0a c6 4e 3c 75 48 33 bd db f8 e0 bc 5d 26 a0 bd
       0.012620458 -0.043770272 -0.027462414 -0.07819817

conv1.bias f4 [6]
000000 c5 8f b4 3d 9a 45 0e bf e9 a8 ac be 62 21 96 be
       0.08816484 -0.55574954 -0.33722618 -0.29322344
000010 9c 28 0d bf f3 c7 2c bd
       -0.5514009 -0.042182874

conv2.weight f4 [16, 6, 5, 5]
000000 04 7e d1 3c 6c 60 55 3d b7 26 62 bd 13 00 19 3d
       0.025572784 0.05209391 -0.055212703 0.037353586
000010 da b4 64 bd 1a c5 76 bd 4f 36 88 bd 79 5d a1 bc
       -0.055836536 -0.060246564 -0.066509835 -0.019697892
000020 9a 23 f6 bb 59 dd 29 bc 22 45 33 3d 1b 3b 30 bc
       -0.0075115683 -0.010367715 0.043767102 -0.010756279
000030 2b 88 a0 bd 33 66 75 3d fa d3 60 bd a0 56 2d bd
       -0.07838472 0.059911918 -0.054889657 -0.04231894
000040 ab 9b 95 bd 15 3f 14 bc 61 a3 b4 3c 34 40 95 bd
       -0.07305082 -0.009048243 0.022050561 -0.072876364
000050 6c 42 56 3d b0 c7 1c bd de 1c e2 3c e3 e7 3b 3d
       0.05230944 -0.038276374 0.027601656 0.04587544
000060 54 ce 80 bd ef 11 55 bc 27 a9 7a 3d 36 73 1f bc
       -0.06289354 -0.013004764 0.061196472 -0.009732058
000070 37 7c 5a bd 72 fd b5 3c f3 9c 5c 3d cd 4a 8e bd
       -0.053341117 0.022215579 0.053860616 -0.06947861
000080 ea cc 2c bd 23 62 fe 3c bf b2 d6 ba 85 18 b3 bd
       -0.04218761 0.031052655 -0.0016380175 -0.08744911
000090 b6 fc 21 bc 74 b7 7d 3d 3e 8b 11 3d 3b 44 e8 bc
       -0.009886911 0.061942533 0.035533182 -0.028352847
0000a0 24 26 03 bd a9 06 b9 bd 42 0a a7 bc d6 2c 56 3d
       -0.032018796 -0.090344734 -0.020390633 0.052288853
0000b0 a1 e0 39 3d 7a 3c 9c 3d f7 89 b2 bc 8b 7c 21 bd
       0.04538024 0.076287225 -0.021794302 -0.039425414
0000c0 a5 14 66 bc 0d 54 ab 3c 9a ec eb 3c 0d 41 62 3d
       -0.014043008 0.020914102 0.028799344 0.05523782
0000d0 db 69 c2 bc 87 8a 54 bd ce 17 a8 bd 6b 08 51 bb
       -0.023732116 -0.051889922 -0.082076654 -0.0031895887
0000e0 5c 4a b3 3c 2d 98 c9 3b 15 dd a4 bd 70 38 74 3d
       0.021886043 0.006152174 -0.080499806 0.059624135
0000f0 cc 21 fd bc 15 12 bf bc f5 8a 5a bc 03 28 e1 bc
       -0.030899905 -0.023324052 -0.013338794 -0.0274849
000100 c8 b2 1f 3d 3e a2 1a 3d e7 ca 15 bd 6a 10 7b bd
       0.03898886 0.037752382 -0.036570456 -0.06129495
000110 78 5a f8 b8 92 d6 15 3d 78 ca 9f bc d0 cc 8f 3c
       -0.00011842413 0.036581583 -0.019505724 0.017553717
000120 35 98 4d 3d 8a 51 68 3d b8 79 0e bc 5c 6b 3d bd
       0.050193984 0.056718387 -0.008696012 -0.046244964
000130 b0 80 04 3c 66 90 c5 bc c0 29 53 3c ed cb ae bd
       0.008087322 -0.024116706 0.012888372 -0.085349895
000140 da 1e ac bd d9 5a 06 3c 6f f8 4a bd 7c 0d 02 bd
       -0.08404322 0.008200371 -0.04955333 -0.03175114
000150 c1 f7 99 3c d6 83 ab bc 26 c5 36 bd 7a ca 9a bc
       0.018794896 -0.020936888 -0.04462161 -0.018895376
000160 83 ff 65 bc 8f 80 85 bd 6f b8 3b bd cf de 91 bc
       -0.0140379695 -0.06518661 -0.045830186 -0.017806439
000170 9c e4 69 3d 1f 2a 0b bd 54 06 8d bd 8b 5f 00 bd
       0.057102785 -0.033975717 -0.068859726 -0.031341117
000180 69 42 b7 3b ac ce 24 3d 61 4b 87 bd 72 ed 6d 3d
       0.0055926335 0.04023616 -0.06606174 0.058087774
000190 4e 43 e6 bc 52 c6 5f bd e6 90 5a bd 9c 8b 55 bd
       -0.028108265 -0.054632492 -0.053360842 -0.052135095
0001a0 8d 31 26 3d 53 ba e9 bc f4 fa 2d 3d 5a 56 3b bd
       0.0405746 -0.02853123 0.042475656 -0.04573665
0001b0 bb 28 0b bd d0 ca 6b bd e3 81 02 bd 6d e4 4e bd
       -0.03397439 -0.057566464 -0.03186215 -0.050510813
0001c0 f9 b9 47 3d b4 38 4c 3d b2 3f 6b bd ba ed 92 3d
       0.04876134 0.049858764 -0.05743379 0.07174249
0001d0 32 8e 7c 3d 32 33 83 bd cc f8 af bd 66 55 f0 3c
       0.061659046 -0.06406249 -0.08592376 0.029337596
0001e0 81 ca 0d 3d 7f 0a 60 bd e0 7c b5 3b 25 31 c1 bc
       0.03461695 -0.05469751 0.005538568 -0.023583004
0001f0 b4 db ff 3c 94 8a 88 bd 8c 10 91 3d c0 08 f0 bc
       0.031232692 -0.06667057 0.07083234 -0.029301047
000200 9d b6 0b bd ea 08 5c 3d 3a 41 25 3c 1e e6 fc bc
       -0.0341097 0.05371944 0.010086352 -0.030871447
000210 89 ca e1 bb 44 77 2f bd a0 82 87 3d c2 6d 9e bd
       -0.006890599 -0.04283835 0.066167116 -0.077357784
000220 37 94 0b bd bf d7 7d bc 4a 0c 6f 3d 85 b8 4f bc
       -0.034076896 -0.015493332 0.05836133 -0.01267827
000230 ee f9 02 3d 1c 39 15 bd 2b e2 3e bd 0c 8e 2b bd
       0.031976633 -0.036431417 -0.04660241 -0.041883513
000240 a6 61 7c bd bb ca 26 3d b7 5c a8 bc de 5a 37 bd
       -0.061616562 0.040720683 -0.020552022 -0.044764392
000250 35 13 13 bd 24 4a c6 bc 8f a6 a7 3e 93 da b1 3d
       -0.03590699 -0.024205275 0.32744262 0.08684268
000260 e2 15 22 be 37 de 5c be fb 08 bc be af 5e dc 3e
       -0.1582866 -0.21569143 -0.36725602 0.43040988
000270 b5 4a be 3d e6 c4 99 bd a6 f2 b3 be d2 ff e6 be
       0.09291593 -0.075082585 -0.35146064 -0.4511705
000280 4b 69 ae 3e 86 d2 61 3e 03 d6 a9 bd ca 78 92 be
       0.34064707 0.22052965 -0.082927726 -0.2860778
000290 4a 73 d3 be ec 7d b3 3e 38 71 34 3e b4 45 44 bc
       -0.41298896 0.35057008 0.17621315 -0.011979509
0002a0 fe 39 48 be 5b c1 9b be 6c 37 a1 3e 3d 19 34 3e
       -0.19553372 -0.30420956 0.31487596 0.17587753
0002b0 01 73 c8 3c 22 66 82 be 69 8c b4 be 65 63 fe bb
       0.0244689 -0.25468546 -0.35263374 -0.0077633136
0002c0 57 a7 28 bc c6 c9 75 bd 0a 1e 4e 3d ea 6a ea 3d
       -0.010293803 -0.06000688 0.050321616 0.114461735
0002d0 46 49 43 bd b7 0e b9 bd 58 96 9e bc 2f 93 93 bd
       -0.0476773 -0.0903601 -0.019358799 -0.072058074
0002e0 bc 54 06 3e b8 cc 11 be aa e1 08 be 58 b2 7a bc
       0.13118261 -0.1423825 -0.13367334 -0.0153013095
0002f0 a4 1d be 3c bc 47 c2 bd e1 64 05 3d c0 b6 6c bd
       0.023207493 -0.094863385 0.03256691 -0.05779147
000300 7e b8 85 3b 94 2b 28 bd 5c ab 8a bd 5b 35 06 be
       0.004080831 -0.041057184 -0.067709655 -0.13106291
000310 fa 49 c5 bd f0 71 b8 3c fa db 13 bc 95 b1 d6 bd
       -0.096332505 0.022515267 -0.0090246145 -0.1048309
000320 29 c2 49 3e e6 be d3 3b ba 1c e1 bc ea 82 24 bd
       0.19702972 0.006461966 -0.027479518 -0.040163912
000330 8c 0f 1c be 0d 7b 41 3d c0 44 29 3b 90 90 15 3d
       -0.15240306 0.04723649 0.0025828332 0.03651482
000340 74 1f ea bc 56 64 3e bd b0 1e 74 bb f4 d1 00 3c
       -0.028579451 -0.046482407 -0.0037249736 0.007862557
000350 59 4a 6b 3d b4 82 c4 bd 03 8b 56 bd 7c e6 f0 3c
       0.05744395 -0.09595242 -0.052378666 0.029406779
000360 cd 03 dd bd 6f c7 b1 bc 19 1e 16 ba a2 ab b1 3d
       -0.107917406 -0.021701543 -0.0005726531 0.086753145
000370 d8 0c 1a 3e b8 8e e1 bd 35 97 c3 bd 61 ab 37 bd
       0.15043962 -0.110135496 -0.09550325 -0.044841174
000380 2b a2 59 bc 24 3c 01 be 95 6d 29 bd 21 c8 f2 3d
       -0.013283293 -0.12620598 -0.04136427 0.11854578
000390 ac c8 9c 3d cf 44 e8 bc dd 30 b0 be 86 28 47 bc
       0.076554626 -0.028353123 -0.3441228 -0.012155658
0003a0 de 4f 88 3d 84 e4 05 3e 9f 86 fc 3d 97 f2 69 be
       0.066558585 0.13075453 0.123303644 -0.22846447
0003b0 54 aa 29 bc 55 70 60 3d 83 2d dc 3c 31 12 18 3e
       -0.010355551 0.05479463 0.02687717 0.1485069
0003c0 77 28 56 be 9c 07 27 be 36 45 80 bd 00 12 d1 3d
       -0.20913874 -0.16311496 -0.06263201 0.10208511
0003d0 fc 7a 07 3e 3a 9f 3c be 43 0c 4d bd a3 82 5c bd
       0.13230509 -0.18420115 -0.05006052 -0.053835522
0003e0 0e ef cb 3c f4 1b cf 3d 99 77 59 be 8f ef 1f be
       0.024894264 0.101127535 -0.21237029 -0.15618728
0003f0 f6 42 26 bd fd 89 ed 3c 19 bd d7 3d f6 21 97 bd
       -0.040591203 0.028996462 0.105341144 -0.073795244

conv2.bias f4 [16]
000000 d7 7f ca bd 82 cc 7d bc 1d 9d 04 be 5b b0 27 3d
       -0.09887665 -0.015490653 -0.12950559 0.04093967
000010 26 0b a0 be 4f 3c a1 3e d7 4c 9a 3e 6f c0 a8 3d
       -0.31258506 0.31491324 0.3013675 0.08239829
000020 4b ad 70 be bf f5 80 3f 22 ee 34 3e f2 fb ac be
       -0.23503606 1.0074996 0.17668965 -0.3378597
000030 c7 c4 90 3e 63 1b 4a 3f cd 54 7b 3f 91 bc 2b be
       0.2827513 0.7894804 0.9817627 -0.16771151

fc.weight f4 [10, 400]
000000 d0 1e b7 bb ab c8 b2 b9 f4 91 3c bd bb 99 cd 3c
       -0.00558839 -0.00034100315 -0.04603763 0.025097718
000010 f4 82 06 3d a7 6c 40 bc 43 12 01 bd e7 31 b9 3c
       0.03283973 -0.011744655 -0.031511556 0.022606803
000020 14 fb 0c 3a c3 fe d8 3c c8 08 19 3c c3 8c 46 3d
       0.000537799 0.026488667 0.0093404725 0.048474085
000030 9b e4 d4 3c 09 df bf bc f5 a8 0c 3d 98 67 3e 3d
       0.025987914 -0.023421781 0.034340817 0.046485513
000040 03 99 e7 3c 15 56 45 3d e5 8b 97 bc ad 62 5f bb
       0.028271204 0.048177797 -0.018499324 -0.0034085915
000050 17 7d 95 bc e5 4e 29 3c 2a 16 28 3d e4 c8 ed bc
       -0.018248124 0.010333751 0.041036762 -0.029026456
000060 37 01 0e 3d bc 50 b3 bd de b9 3f bd e4 b2 79 bd
       0.034669127 -0.08755633 -0.046808116 -0.06096162
000070 c2 54 09 bc e0 1e b9 bd 93 92 84 3d 6e 2c 81 3d
       -0.008382024 -0.09039092 0.06473269 0.063073024
000080 b1 1e 74 3a ac d3 80 3c 41 8b dd 3d 2a da f9 3d
       0.00093124347 0.015725933 0.10817576 0.121998146
000090 84 c2 a3 3d b2 e3 2e 3d 77 48 dd 3d 8f 18 ef 3d
       0.07996085 0.042697616 0.10804837 0.11674606
0000a0 6e 75 19 bd 4a f9 f1 3c 72 50 84 bd cc 50 33 bc
       -0.037465505 0.029537816 -0.06460656 -0.010944556
0000b0 c2 16 8c bb d6 e8 16 be db 52 e5 3b d4 0d eb bd
       -0.004275174 -0.14737257 0.0069984025 -0.11477247
0000c0 ef 02 07 bd 18 df 52 be 72 e5 f6 3c 6e 5e 56 3c
       -0.032961782 -0.20592916 0.030138705 0.013084037
0000d0 6c 8c f8 3c 64 49 55 3d 3d f2 c7 3c 1f 44 75 3d
       0.030340396 0.052071944 0.0244075 0.05987942
0000e0 3f 34 40 3b e2 3c a7 bc 42 20 5e 3d b9 92 2e 3d
       0.0029328016 -0.020414773 0.054229982 0.042620394
0000f0 ad 1d 5b 3b eb d5 d7 bb eb 1a fd bc cb 95 81 3d
       0.0033434436 -0.0065867803 -0.030896625 0.06327399
000100 46 84 23 3d 7f 4d ac bc 99 14 09 bd 5f 5c 10 3d
       0.039921068 -0.021033047 -0.03346691 0.035244342
000110 11 de f1 3c 2b db 80 3d 1f dd 5c 3d 15 0d 95 3d
       0.029524835 0.06291803 0.053921815 0.07277886
000120 48 8a 47 3b 80 e1 1e 3d 87 ee e6 3c 91 a7 d6 bb
       0.0030447412 0.038789272 0.02818991 -0.006550737
000130 32 e5 b4 38 f6 97 b9 bb b6 dc 8c 3c ac 7a 75 3c
       8.62576e-05 -0.005663867 0.017195087 0.014982861
000140 ce 12 2b 3d 96 23 d3 3c be 26 4e 3d 6c 36 ef bc
       0.04176598 0.025773805 0.050329916 -0.029200755
000150 62 18 f4 b9 92 0a 4d bc 06 f8 00 bc 09 d5 9b bd
       -0.00046557473 -0.012514727 -0.007871633 -0.076089926
000160 94 0e 30 bd 7f 59 fb bc b2 74 06 bd d9 b6 c0 bd
       -0.042982653 -0.030682324 -0.032826133 -0.094098754
000170 bf 42 b9 bc b6 b2 ea bc 1d 56 1c bc fe 6e 7d bd
       -0.022614835 -0.02864967 -0.009542015 -0.06187343
000180 34 b6 46 bd 0a 89 b1 bc ff 55 59 3c 80 c5 5d bd
       -0.048513606 -0.02167179 0.013265132 -0.05414343
000190 bf 50 64 3d e7 a5 4e 3c 1e 6e 0b be d1 db dd bd
       0.055741068 0.012612796 -0.13616225 -0.10832942
0001a0 6e 5e c2 bd 17 7c 87 3d 97 a6 2c 3d 48 bf 25 bc
       -0.09490667 0.06615465 0.04215106 -0.010116406
0001b0 87 0f 92 bd 98 90 3c 3d bd 1e 8f 3d 73 3e d6 3d
       -0.07131868 0.046036333 0.06988285 0.1046113
0001c0 c3 79 50 bd 17 60 93 bc b2 3f df 3d 7a e7 be 3d
       -0.05089737 -0.017990155 0.10900821 0.093214944
0001d0 76 04 09 3e 3a 38 b2 3d f8 e1 7e 3c 63 d4 6d 3d
       0.13380608 0.087021306 0.015556805 0.058063876
0001e0 4d 1a 57 3e 0a fa c3 3d 8e d0 ad 3d 85 06 8d 3d
       0.21006127 0.095691755 0.08487044 0.06886009
0001f0 7a 93 f1 b9 c8 7f 3e be 8d ec 06 be a9 c3 dc bd
       -0.0004607698 -0.18603432 -0.13176174 -0.10779507
000200 b4 75 43 3d 37 5a c9 3d da 90 03 be 94 32 9b bd
       0.047719672 0.0983166 -0.12848225 -0.075780064
000210 ca 41 3a bd a9 f3 f0 3b af 18 1e 3e d3 ac e7 3d
       -0.045472898 0.0073532653 0.15439104 0.113122605
000220 0e 68 b4 3d 2c 66 14 bd 1a 46 c7 bc 7a 9c a5 3d
       0.08808909 -0.03623025 -0.02432542 0.08086486
000230 22 14 47 3e 8c 80 9b 3d 04 6b 40 bd 4c 38 74 bb
       0.19441274 0.07592878 -0.046977058 -0.0037265
000240 92 b5 16 3d bb e3 51 3e b6 3e 28 3e 86 26 ca 3d
       0.036794253 0.20497029 0.16430172 0.09870629
000250 3e 17 79 3a 7e 11 75 bc ff e1 1f 3e fa a1 df 3a
       0.00095020595 -0.014957784 0.15613554 0.0017061823
000260 8f c9 fc bd 34 16 ba bc ff 83 b2 3d f2 89 26 3e
       -0.12343132 -0.022715665 0.087165825 0.1626356
000270 78 6a ed 3b d5 d5 eb bc cf 8a 0a 3e 33 17 c0 3d
       0.007245358 -0.028788486 0.13529514 0.09379425
000280 db d3 24 3e a7 1d c8 3d dd b4 b6 3b a9 13 21 3e
       0.16096441 0.09771281 0.00557576 0.15730156
000290 ca ac 1d 3e cb f8 19 3d 9b 84 2c 3d 90 61 43 3d
       0.15397945 0.037590783 0.04211865 0.047700465
0002a0 51 9a 01 3e f2 e8 34 3e 6f 6f 16 3d 6d 0f dd bd
       0.12656523 0.17666987 0.036727365 -0.10793958
0002b0 77 0c a8 bd c9 ac c4 bc 7a 96 6b 3e f4 8a f4 bd
       -0.082055025 -0.024008172 0.23006621 -0.11940566
0002c0 cc b9 1c bd d5 cb cf bc 76 6d b2 bd d3 0b 31 be
       -0.038263127 -0.02536575 -0.08712284 -0.17289667
0002d0 b9 7f 82 3d 89 05 27 3e cc 4f 09 3e dd 84 e0 3d
       0.063720174 0.16310705 0.13409346 0.10962842
0002e0 e4 f5 05 bd 84 b1 29 3e 81 39 f0 3d 38 ce 93 3d
       -0.032705203 0.16571623 0.11729718 0.072170675
0002f0 4a de 0c 3d ab 39 30 bd 7a 7b 99 3d 08 d7 36 3d
       0.03439168 -0.043023746 0.074942544 0.044638664
000300 a0 c9 03 3e b5 b5 a9 3d 2e 66 77 bd 58 62 01 be
       0.12869883 0.08286611 -0.06040018 -0.12635171
000310 11 ef 61 3d 70 9d 15 3e 19 b6 80 3d 55 e1 d2 bd
       0.055159632 0.14610839 0.06284732 -0.10296885
000320 ec 4d 90 be 5d 5d bd 3b 53 bf ab 3d 7b a2 db 3d
       -0.2818445 0.005778952 0.083861016 0.1072435
000330 bd 2c 59 3e cf 57 b6 bd fc 4c 0f 3e bf aa ae 3d
       0.21208473 -0.08903467 0.13994211 0.08528661
000340 ed fc 0b 3e c6 8a 72 3e 4f 10 dd bd 77 cc 67 3d
       0.13670702 0.2368575 -0.10794126 0.056591477
000350 0b b9 1f bc f3 c0 15 3d d5 c2 ac 3d df a7 0c 3a
       -0.0097487075 0.036560964 0.08435599 0.0005365591
000360 70 3b 85 bc 69 12 76 3d 7e 8c 6e bd ee b0 9e 3c
       -0.016263694 0.06007615 -0.058239453 0.019371476
000370 df 32 b3 3d a7 e6 dd 3c ca f3 5a 3d 55 0e 4c 3d
       0.08749937 0.027087523 0.05345515 0.049818356
000380 60 04 05 be 2c 9d 01 3d c9 59 2d 3d 7a 5c 1f 3d
       -0.1298995 0.03164403 0.042321954 0.038906552
000390 05 0b 4b bd 50 b3 03 be 3c ff 06 bd aa 6f a3 bb
       -0.049571056 -0.12861371 -0.032958254 -0.0049876766
0003a0 27 f4 7c bc 75 85 85 3c d2 8e d8 bd a6 12 1a bd
       -0.01543907 0.016298989 -0.10574116 -0.03761544
0003b0 12 29 5d bd 6c 15 73 3d 17 75 e5 bb 67 61 d7 bd
       -0.053994246 0.0593466 -0.0070024836 -0.10516625
0003c0 fd 9e 97 bd 68 68 8c bd 8c 9a 06 3d f8 70 54 3c
       -0.074033715 -0.068558514 0.03286223 0.012966387
0003d0 db 09 24 be 02 a3 1d be cc fb 5b 3d ee c9 13 3d
       -0.16019385 -0.15394214 0.05370693 0.036081247
0003e0 2d e3 3a 3e 40 b2 95 bc 01 e8 9c 3d cc a8 ff 3d
       0.18250723 -0.018273473 0.07661439 0.12483367
0003f0 6b 72 4c 3c 49 41 ee bc f4 d2 65 bd a1 24 dd 3d
       0.012478451 -0.029083865 -0.056109384 0.10798002

fc.bias f4 [10]
000000 5a 19 c4 bd 81 14 8b be 23 c3 c5 3d 94 ab 72 3e
       -0.09575148 -0.2716408 0.0965636 0.23698264
000010 86 2d 05 3f 8c 5f 4a be 48 58 5e 3f 5c ae 04 be
       0.5202259 -0.1976301 0.86853456 -0.12957138
000020 cf 33 c1 3e ac b8 83 be
       0.3773484 -0.2572683
