net.pth (torch_old, 13343 bytes, 6 tensors)

conv1.weight f4 [6, 3, 5, 5]
0.042630576 -0.056989975 0.15637958 -0.0075698746 -0.09306899 0.15305458 0.049147815 0.30743232
-0.0021498662 -0.05324543 -0.16693372 -0.12172564 -0.04096919 -0.10802943 -0.09686836 -0.6468002
-0.5551621 -0.51450574 -0.38132152 -0.4792262 -0.18045007 -0.27148104 -0.06336828 -0.12280939
-0.14934322 0.09424659 -0.0006117562 0.0716271 0.0883311 0.02697257 0.15992124 0.23212007
0.37812853 0.16877288 0.15048586 0.10357293 0.24525331 0.3443754 0.077834904 0.23079352
-0.3170176 -0.30621907 -0.06841186 -0.20599565 -0.2384255 -0.12168828 0.03831637 0.22585188
-0.0786381 0.16789906 -0.2142251 -0.2561823 -0.16798124 -0.27803978 -0.07069287 0.098299414
0.018555442 0.14319888 0.14601715 0.1895843 0.016921956 0.110044435 0.39286426 0.2587653
0.17724812 -0.26972824 -0.108959116 -0.060738474 -0.15922499 -0.0633677 0.110511295 0.2844817
0.30040002 0.21482556 0.24853179 -0.20348363 -0.044928502 0.15439169 0.18590257 0.10920906
0.030981835 -0.108339384 -0.14137144 -0.03254941 0.019916734 0.06699567 -0.19438249 -0.33350363
-0.19084127 -0.07395486 0.16132966 0.017224431 -0.06783918 -0.22242533 -0.03178465 0.2942371
0.42434928 0.1399979 0.050788883 0.16899848 -0.14114195 -0.16234073 -0.037023146 -0.04016959
-0.10332677 -0.04176251 -0.2281635 -0.1278045 -0.08475935 -0.17726952 0.20365255 -0.28804648
-0.35869274 -0.29771554 -0.051138435 0.11147777 0.12356486 -0.105951935 -0.25955608 -0.007650284
0.2550386 0.24754791 0.25013855 -0.009835837 0.17815042 -0.19366243 -0.0073045134 -0.043224204
0.052651573 -0.041107878 0.06801291 -0.11561872 -0.109639235 -0.022068052 -0.06557278 0.19297025
-0.20672594 -0.32597342 -0.023935104 -0.15720926 0.19529925 0.21419685 0.029284276 -0.23529191
-0.11579711 0.24468839 0.34401605 0.27167302 0.1751919 0.062042437 -0.24192525 -0.11299829
-0.053570703 -0.0074438257 -0.013355096 -0.118781716 -0.11803071 -0.013615596 -0.054310627 -0.12828386
-0.3295088 -0.2919971 -0.1830254 -0.07964196 -0.2649008 -0.13800143 -0.09252022 -0.171301
-0.17000414 -0.058522325 -0.19539903 -0.21035306 -0.028617404 -0.0037962534 -0.1524857 -0.12605402
-0.024621606 0.14115384 0.085949525 0.23054785 -0.060345817 0.12449222 0.10996337 0.10823924
-0.016125444 -0.15746342 -0.020752728 -0.07775413 -0.08260681 0.0067582875 -0.023757933 -0.077909425
-0.038018357 -0.054060176 -0.062157597 -0.16356704 -0.05054784 -0.03764664 0.10196792 -0.048239246
0.20971335 0.20966826 0.34336343 0.42114893 0.3845977 0.16911745 0.22667304 0.287904
0.23692814 0.18605891 0.19720185 0.28186288 0.20156792 0.19204938 0.18354534 0.11586925
0.21250764 0.18088959 0.35683757 0.23123713 0.09277919 0.23908658 0.29455474 0.1097524
0.10800244 -0.2479154 -0.02858579 0.0398718 -0.097904876 -0.22411832 -0.29743844 0.112625055
0.06101927 -0.06245733 0.07989205 0.23533589 -0.15056537 -0.37812036 0.028377322 0.27577055
0.0068719666 -0.2490451 -0.17028478 0.04464514 -0.016238218 -0.32904378 0.010311467 0.1853111
-0.21715547 -0.41592216 -0.04606 0.16459008 0.2751384 0.049939543 -0.005705529 0.030027509
00000000: 669d 2e3d 526e 69bd f821 203e b60c f8bb
00000010: f49a bebd 57ba 1c3e 384f 493d c567 9d3e
00000020: c5e4 0cbb e117 5abd acf0 2abe 4b4b f9bd
00000030: 4fcf 27bd 893e ddbd eb62 c6bd b394 25bf
00000040: 1a1f 0ebf a6b6 03bf 933c c3be 235d f5be
00000050: e7c7 38be 90ff 8abe 3bc7 81bd 7d83 fbbd
00000060: 6eed 18be 5b04 c13d 435e 20ba 3bb1 923d
00000070: f0e6 b43d 94f5 dc3c 65c2 233e e2b0 6d3e
00000080: 109a c13e ccd2 2c3e f718 1a3e 0b1e d43d
00000090: af23 7b3e f951 b03e e867 9f3d 2355 6c3e
000000a0: 2250 a2be bfc8 9cbe 841b 8cbd 86f0 52be
000000b0: d025 74be b437 f9bd a0f1 1c3d b745 673e
000000c0: 030d a1bd bbed 2b3e d35d 5bbe 542a 83be
000000d0: 4603 2cbe 3b5b 8ebe 6cc7 90bd 3451 c93d
000000e0: 9501 983c baa2 123e 8585 153e 6322 423e
000000f0: ea9f 8a3c fa5e e13d 8125 c93e e37c 843e
00000100: 8880 353e d219 8abe f525 dfbd e8c8 78bd
00000110: e00b 23be edc6 81bd bf53 e23d 96a7 913e
00000120: 08ce 993e 3bfb 5b3e 1e7f 7e3e 035e 50be
00000130: f306 38bd db18 1e3e 3e5d 3e3e 00a9 df3d
00000140: 9ecd fd3c 0ae1 ddbd adc3 10be 8852 05bd
00000150: 6b28 a33c 0735 893d 340c 47be fdc0 aabe
00000160: e56b 43be a575 97bd 9a33 253e 401a 8d3c
00000170: 45ef 8abd 77c3 63be 9f30 02bd 3fa6 963e
00000180: 4f44 d93e 9c5b 0f3e 0108 503d f00d 2d3e
00000190: 8487 10be a63c 26be 95a5 17bd de88 24bd
000001a0: fc9c d3bd 2a0f 2bbd b1a3 69be 2fdf 02be
000001b0: 4f96 adbd 2486 35be 4b8a 503e d47a 93be
000001c0: 93a6 b7be 2c6e 98be 8976 51bd 754e e43d
000001d0: 930f fd3d 54fd d8bd 89e4 84be 3caf fabb
000001e0: 6b94 823e 337d 7d3e 2912 803e 7e26 21bc
000001f0: 106d 363e 724f 46be b35a efbb dd0b 31bd
00000200: 2da9 573d bc60 28bd 5a4a 8b3d 82c9 ecbd
00000210: 898a e0bd 0fc8 b4bc 064b 86bd fe99 453e
00000220: f7af 53be fde5 a6be 8d13 c4bc 77fb 20be
00000230: 87fc 473e 6b56 5b3e 94e5 ef3c 5df0 70be
00000240: 0927 edbd 988f 7a3e df22 b03e ba18 8b3e
00000250: 8165 333e 3620 7e3d 41bb 77be a66b e7bd
00000260: f46c 5bbd 56eb f3bb 55cf 5abc d443 f3bd
00000270: 16ba f1bd f313 5fbc d274 5ebd d85c 03be
00000280: 61b5 a8be a580 95be 036b 3bbe 531b a3bd
00000290: 14a1 87be 3f50 0dbe 3e7b bdbd 8869 2fbe
000002a0: 9115 2ebe 1bb5 6fbd af16 48be cb66 57be
000002b0: 0c6f eabc 90ca 78bb 3625 1cbe 4e14 01be
000002c0: 40b3 c9bc a28a 103e 4e06 b03d bc14 6c3e
000002d0: 2d2d 77bd c7f5 fe3d 7a34 e13d 89ac dd3d
000002e0: 8219 84bc 173e 21be a001 aabc 8f3d 9fbd
000002f0: c22d a9bd a074 dd3b ff9f c2bc fa8e 9fbd
00000300: 23b9 1bbd 346e 5dbd f798 7ebd 1e7e 27be
00000310: 400b 4fbd 5d33 1abd 8fd4 d03d 8496 45bd
00000320: 19bf 563e 47b3 563e 55cd af3e d5a0 d73e
00000330: fde9 c43e 202d 2d3e fa1c 683e 2768 933e
00000340: 4a9d 723e 3a86 3e3e 48ef 493e 5550 903e
00000350: d267 4e3e 98a8 443e 4ff3 3b3e db4c ed3d
00000360: 9a9b 593e 1f3b 393e 6ab3 b63e 6dc9 6c3e
00000370: 0403 be3d 1dd3 743e e1cf 963e dec5 e03d
00000380: 6230 dd3d 89dd 7dbe bf2c eabc 9d50 233d
00000390: 5a82 c8bd 467f 65be da49 98be f7a7 e63d
000003a0: 58ef 793d 42d3 7fbd 719e a33d e4fb 703e
000003b0: cf2d 1abe fe98 c1be 8f77 e83c cc31 8d3e
000003c0: 3c2e e13b ae05 7fbe 225f 2ebe d3dd 363d
000003d0: 0306 85bc 6d78 a8be 6df1 283c 31c2 3d3e
000003e0: 015e 5ebe c0f3 d4be 69a9 3cbd 4d8a 283e
000003f0: f1de 8c3e 688d 4c3d 72f5 babb 40fc f53c

conv1.bias f4 [6]
-0.17501988 0.0464871 0.43886942 0.1819884 -0.6643844 -0.14225431
00000000: 6938 33be 4269 3e3d 7eb3 e03e 2b5b 3a3e
00000010: 1915 2abf 1dab 11be

conv2.weight f4 [16, 6, 5, 5]
-0.036797795 -0.113106474 -0.17471465 -0.15049973 -0.06358124 -0.19922803 -0.24363749 -0.053687215
-0.068648465 -0.09571161 -0.19958556 -0.15319534 -0.16229378 -0.054845173 -0.03334764 -0.18221505
-0.18924196 -0.121856764 -0.1017937 -0.022623189 -0.1293913 -0.051374972 0.0373172 0.018612882
0.05098284 -0.020009762 0.23591428 0.14537884 0.17955574 0.12561028 0.054725267 0.19170472
0.19877031 -0.022316152 0.0535077 -0.10636022 0.0138263395 0.14402726 -0.048053265 -0.112679034
-0.14744623 0.059169322 0.1117033 -0.0681857 -0.055815354 -0.14720796 0.06507325 0.012063224
0.09853534 -0.10782066 -0.05370461 -0.1513717 -0.14952105 -0.17510784 -0.055017944 -0.052704893
-0.07024008 -0.10596865 -0.15435079 -0.018915573 -0.057921395 -0.060893156 -0.0762254 -0.046418205
0.049291432 -0.04621124 -0.015829923 -0.067494206 0.05572848 0.036405355 0.05871239 -0.1174393
-0.10769108 0.030252445 0.0034310026 -0.027786428 -0.027610809 -0.1217524 -0.042876728 -0.06347219
0.11558549 -0.09777222 -0.13046621 -0.15334234 0.031101827 0.16534826 -0.009153023 -0.055464137
-0.07755724 -0.042399283 0.11748275 0.001012561 -0.04117228 0.045558315 -0.039992712 0.19196838
0.09842011 0.07347093 0.1127923 0.13158983 -0.057987098 -0.0033497144 -0.11720648 -0.037750166
0.020190341 -0.017184282 -0.10717545 -0.16363811 -0.052868508 -0.14747038 -0.06282138 -0.17366682
-0.08132842 -0.13502172 -0.013676393 -0.12816475 -0.012503307 -0.07528885 -0.08395267 -0.031764355
-0.04902078 -0.05824562 -0.13770086 -0.1296503 -0.04444767 -0.17467752 -0.14627524 -0.043486044
-0.10118426 -0.004062411 -0.16629817 0.0667098 0.1593598 0.16498147 0.0016135181 -0.17639422
0.026627835 0.17245682 0.20211782 0.12527038 -0.1559868 0.15992181 0.067951396 0.2771993
0.088984355 -0.13242488 0.09138087 0.04936262 0.14794594 0.23879038 0.063715145 0.11119864
0.046578195 0.058059417 -0.10063547 0.051033497 0.07645631 0.03841559 -0.026356986 -0.07848393
0.060964245 -0.110993624 -0.13334858 -0.0031536573 0.034739155 0.12325623 -0.038998973 0.004337905
-0.050755266 -0.03271331 -0.0027774556 -0.045872003 -0.046714623 -0.009512499 -0.070613734 0.19531749
0.14136447 0.033713467 0.0017753657 0.014712416 0.3665706 0.18100773 0.056387823 -0.020677818
-0.08691372 0.33633673 0.2797174 0.23360837 -0.037820183 -0.17153415 0.016202038 0.05285219
0.058875445 -0.056254447 -0.06489894 0.027901527 -0.019776858 -0.098375596 -0.13270086 -0.0752004
-0.04799345 -0.10644565 -0.09874601 -0.016258461 0.122785434 -0.029898055 -0.010937482 -0.12627149
-0.05502943 0.04424875 -0.13287029 -0.114781514 -0.067849584 0.09452734 0.17964312 -0.103176914
-0.13346659 -0.13862318 0.05922882 0.28089857 0.2284037 0.27645114 0.22992527 0.09641618
0.13356799 -0.020897033 0.014227898 -0.08214126 0.044863906 -0.012141116 -0.16964759 -0.14536017
-0.015381786 0.06285358 0.07719451 -0.05944836 0.01341059 0.052796926 0.025087256 0.029597422
-0.023839384 -0.022743497 0.031246247 0.04018418 0.055356286 -0.12709875 0.015438475 -0.054887645
-0.0038453073 -0.052670196 0.07559994 0.13485889 0.030655261 -0.07818789 0.025571655 0.11986444
00000000: 49b9 16bd 5ea4 e7bd 66e8 32be 9a1c 1abe
00000010: e236 82bd 6f02 4cbe 1b7c 79be 20e7 5bbd
00000020: 9197 8cbd 7304 c4bd 2860 4cbe 3ddf 1cbe
00000030: 5730 26be 55a5 60bd 8997 08bd 9596 3abe
00000040: a5c8 41be 0a90 f9bd 3779 d0bd 4454 b9bc
00000050: 277f 04be 906e 52bd ecd9 183d 0b7a 983c
00000060: 62d3 503d 83eb a3bc 8393 713e 31de 143e
00000070: 76dd 373e fb9f 003e 9a27 603d 3e4e 443e
00000080: 728a 4b3e 5dd0 b6bc e42a 5b3d 63d3 d9bd
00000090: df87 623c e27b 133e 80d3 44bd 44c4 e6bd
000000a0: 25fc 16be 885b 723d b3c4 e43d f2a4 8bbd
000000b0: a49e 64bd afbd 16be 2045 853d d4a4 453c
000000c0: e5cc c93d 14d1 dcbd 5df9 5bbd 2f01 1bbe
000000d0: 0c1c 19be 784f 33be 7f5a 61bd 16e1 57bd
000000e0: 08da 8fbd 1706 d9bd 220e 1ebe d5f4 9abc
000000f0: fc3e 6dbd 1a6b 79bd 101c 9cbd 0421 3ebd
00000100: d0e5 493d ff47 3dbd c1ad 81bc 673a 8abd
00000110: 8c43 643d c81d 153d 677c 703d 0484 f0bd
00000120: 248d dcbd fad3 f73c acda 603b 5da0 e3bc
00000130: 1030 e2bc 5359 f9bd 829f 2fbd b5fd 81bd
00000140: 16b8 ec3d cd3c c8bd ef98 05be c605 1dbe
00000150: 42c9 fe3c 0e51 293e 90f6 15bc 5d2e 63bd
00000160: 55d6 9ebd dfaa 2dbd cc9a f03d e9b7 843a
00000170: 44a4 28bd 5b9b 3a3d 66cf 23bd 5c93 443e
00000180: 7c90 c93d ed77 963d a6ff e63d 7cbf 063e
00000190: e183 6dbd e286 5bbb f309 f0bd eb9f 1abd
000001a0: 3766 a53c 0dc6 8cbc cd7e dbbd c090 27be
000001b0: a68c 58bd 7a02 17be 7fa8 80bd b7d5 31be
000001c0: 848f a6bd 2243 0abe f312 60bc 9f3d 03be
000001d0: acda 4cbc 0a31 9abd 61ef abbd 571b 02bd
000001e0: 03ca 48bd f692 6ebd 7401 0dbe 0cc3 04be
000001f0: c30e 36bd aade 32be 2dc9 15be 6c1e 32bd
00000200: b139 cfbd f91d 85bb 114a 2abe 269f 883d
00000210: 372f 233e e7f0 283e af7c d33a b0a0 34be
00000220: 9e22 da3c 8598 303e f9f7 4e3e e146 003e
00000230: 01bb 1fbe 8bc2 233e 1a2a 8b3d 11ed 8d3e
00000240: 6e3d b63d 639a 07be e525 bb3d 7530 4a3d
00000250: 247f 173e 7785 743e 167d 823d 1dbc e33d
00000260: c7c8 3e3d b6cf 6d3d f819 cebd 8008 513d
00000270: 2095 9c3d aa59 1d3d 9bea d7bc 2fbc a0bd
00000280: a5b5 793d a050 e3bd 888c 08be 97ad 4ebb
00000290: a54a 0e3d c36d fc3d 63bd 1fbd fc24 8e3b
000002a0: c1e4 4fbd 64fe 05bd f905 36bb 48e4 3bbd
000002b0: d557 3fbd 50da 1bbc ef9d 90bd 4f01 483e
000002c0: d9c1 103e 2217 0a3d 63b3 e83a 580c 713c
000002d0: 24af bb3e 175a 393e ebf6 663d 8764 a9bc
000002e0: d2ff b1bd 5434 ac3e 1e37 8f3e 0837 6f3e
000002f0: 56e9 1abd a6a6 2fbe 23ba 843c 8a7b 583d
00000300: 6127 713d 106b 66bd bce9 84bd be91 e43c
00000310: 1403 a2bc 2579 c9bd bce2 07be ab02 9abd
00000320: c894 44bd 2d00 dabd 593b cabd 7730 85bc
00000330: ee76 fb3d c4ec f4bc 2033 33bc 504d 01be
00000340: 8a66 61bd 2d3e 353d 260f 08be 9212 ebbd
00000350: b9f4 8abd 8d97 c13d 5ef4 373e 6b4e d3bd
00000360: 77ab 08be 3cf3 0dbe eb99 723d f0d1 8f3e
00000370: a9e2 693e 018b 8d3e 8871 6b3e d975 c53d
00000380: 0cc6 083e 4130 abbc 211c 693c ad39 a8bd
00000390: 37c3 373d 88eb 46bc 19b8 2dbe 4cd9 14be
000003a0: e303 7cbc 61b9 803d 2818 9e3d 2080 73bd
000003b0: 17b8 5b3c 9741 583d ca83 cd3c 4b76 f23c
000003c0: d04a c3bc 9250 babc 21f8 ff3c 2b98 243d
000003d0: 46bd 623d 2d26 02be a8f1 7c3c ded1 60bd
000003e0: 8d01 7cbb b4bc 57bd 24d4 9a3d 7318 0a3e
000003f0: be20 fb3c f920 a0bd a67b d13c 7d7b f53d

conv2.bias f4 [16]
0.32488382 0.28280127 0.5121749 -0.34510234 -0.3145517 0.5042763 -0.02631168 -0.0921886
-0.5418358 0.31731087 0.30462602 0.059109744 -0.4034384 -0.03825474 -0.065563954 0.6251362
00000000: 2c57 a63e 54cb 903e e51d 033f 41b1 b0be
00000010: ec0c a1be 4018 013f 988b d7bc 60cd bcbd
00000020: c0b5 0abf 9276 a23e f1f7 9b3e 0f1d 723d
00000030: 7a8f cebe 01b1 1cbd 6546 86bd ed08 203f

fc.weight f4 [10, 16]
0.047138546 0.583829 -0.6652196 -0.32415003 0.22607352 -0.21205632 0.36408353 -0.12693177
0.13048595 -0.27338177 -0.446936 0.0006493046 -0.031038446 0.47515962 0.23969223 0.7283183
-0.3436722 0.35292774 -0.32928216 0.61817455 0.14265816 -0.6284915 0.21126653 -0.03443207
0.9018994 -0.16731691 -0.6300788 -0.9711184 -7.6307864e-05 -0.17328177 -0.30788472 -0.7284567
0.15515922 0.21058077 0.11196476 -0.3095996 0.25924483 0.20288818 -0.026537614 0.22709654
-0.47716948 0.51320904 0.35321894 0.258536 -0.4310981 -0.111805454 0.31380647 0.5147008
0.15704736 0.042986423 0.6000955 -0.30085796 0.1843716 0.59380156 -0.37596273 -0.11585474
-0.21750136 -0.05781432 0.49901593 -0.07430501 -0.018605815 -0.49740663 -0.057619516 0.08118998
0.25186026 -0.23428415 0.2325219 -0.1447566 -0.18567474 -0.26003897 0.30823177 0.20910874
-0.50905573 0.34224153 -0.17798184 -0.0049667247 0.15036511 0.025361007 0.31342953 0.27215585
0.09792491 -0.3509132 0.35851407 -0.42005134 0.16865188 0.69360435 0.18092446 -0.13935092
-0.23051803 -0.006643823 0.57376075 -0.18845326 0.50967854 -0.7823333 -0.16504182 0.09895454
0.28341523 -0.34212554 0.84660155 -0.47889027 -0.4250626 -0.28690314 -0.3720133 -0.020799067
0.3426174 0.5749866 0.13715735 -0.7455103 -0.25897902 -0.580718 -0.1710337 -0.30738965
0.70267785 -0.70156187 0.011463554 0.4790618 -0.13185072 -0.122935854 0.70390874 0.14959459
-0.5370197 -0.24722242 -0.24956527 0.2295468 0.8728047 0.623632 -0.08013839 -0.37754208
-0.24992701 0.6273542 -0.4668218 0.12215521 -0.70272624 -0.1285409 -0.4118576 0.13229156
0.41509745 -0.61059654 0.13017175 0.45073155 -0.88360417 0.1961031 0.14498778 0.32503098
-0.80370975 -0.28822637 -0.22092976 0.87526435 0.22235504 -0.53324574 -0.55076134 0.1296676
0.52240735 -0.14044008 -0.007170489 0.25951076 0.26375678 0.25478664 0.11345738 -0.45804793
00000000: 5914 413d d175 153f d54b 2abf fef6 a5be
00000010: d17f 673e 4b25 59be 2869 ba3e 67fa 01be
00000020: 1c9e 053e b2f8 8bbe ccd4 e4be 1836 2a3a
00000030: 5744 febc 1f48 f33e e171 753e 1173 3a3f
00000040: cdf5 afbe f2b2 b43e ac97 a8be b040 1e3f
00000050: fb14 123e d2e4 20bf 4156 583e a408 0dbd
00000060: e1e2 663f 2055 2bbe d84c 21bf 379b 78bf
00000070: 7907 a0b8 c770 31be 11a3 9dbe 237c 3abf
00000080: 0fe2 1e3e 7ca2 573e c84d e53d d783 9ebe
00000090: bdbb 843e ebc1 4f3e 6965 d9bc ff8b 683e
000000a0: 8f4f f4be ab61 033f 1dd9 b43e d55e 843e
000000b0: e4b8 dcbe 42fa e4bd 3eab a03e 6ec3 033f
000000c0: 06d1 203e 8812 303d dc9f 193f 0e0a 9abe
000000d0: e9cb 3c3e 6103 183f 307e c0be 4045 edbd
000000e0: adb8 5ebe b5ce 6cbd 047f ff3e 3a2d 98bd
000000f0: 396b 98bc 15ac febe 7102 6cbd ef46 a63d
00000100: d4f3 803e 2fe8 6fbe 391a 6e3e 133b 14be
00000110: 8521 3ebe d423 85be 8ed0 9d3e 9a20 563e
00000120: 7a51 02bf 483a af3e df40 36be e8bf a2bb
00000130: 50f9 193e e3c1 cf3c d679 a03e 0358 8b3e
00000140: db8c c83d e5aa b3be 288f b73e f810 d7be
00000150: 14b3 2c3e 0e90 313f 4344 393e 02b2 0ebe
00000160: eb0c 6cbe 6db4 d9bb fce1 123f e4f9 40be
00000170: 4b7a 023f ff46 48bf b900 29be aea8 ca3d
00000180: cd1b 913e 142b afbe e1ba 583f 1b31 f5be
00000190: cea1 d9be f8e4 92be 8778 bebe ce62 aabc
000001a0: 8c6b af3e 5232 133f fa72 0c3e c3d9 3ebf
000001b0: e698 84be efa9 14bf 7523 2fbe 2d62 9dbe
000001c0: b2e2 333f 8f99 33bf a1d1 3b3c 9747 f53e
000001d0: e003 07be cbc5 fbbd 5d33 343f 532f 193e
000001e0: 207a 09bf e027 7dbe 0a8e 7fbe 510e 6b3e
000001f0: 2170 5f3f 59a6 1f3f 991f a4bd 324d c1be
00000200: deec 7fbe 499a 203f 4403 efbe 832c fa3d
00000210: dee5 33bf 3aa0 03be 00df d2be 7077 073e
00000220: a787 d43e 0e50 1cbf be4b 053e 49c6 e63e
00000230: e233 62bf 40cf 483e ad77 143e 766a a63e
00000240: ecbf 4dbf 6892 93be 693b 62be 5311 603f
00000250: 0ab1 633e cb82 08bf b2fe 0cbf 95c7 043e
00000260: 7dbc 053f 86cf 0fbe 6cf6 eabb 98de 843e
00000270: 210b 873e 6573 823e 585c e83d 4285 eabe

fc.bias f4 [10]
-0.060827617 -0.7838705 0.40044203 0.25294998 0.7162569 -0.12373234 0.38929832 -0.54987144
0.5830591 -0.81801623
00000000: 6126 79bd bdab 48bf bd06 cd3e a982 813e
00000010: 9d5c 373f 6267 fdbd 1c52 c73e 60c4 0cbf
00000020: 5c43 153f 8369 51bf
